analysis/weights/model_svb__kfolds_3__offset_1__seed_kfold-FvT-random-0__5d15ab50-4d95-4d27-bd12-b0d5b2246228.pkl (torch, 210528 bytes, 210 tensors)

inputEmbed.ancillaryEmbed.m f4 [1, 1, 1, 4]
00000000: 1520 8f43 86af ab3e 488c 2e3f 3dcd fc44
286.25064 0.3353235 0.681828 2022.4137

inputEmbed.ancillaryEmbed.s f4 [1, 1, 1, 4]
00000000: 1e16 9742 16c1 df3e 112f 573f 3336 fc3e
75.5432 0.43702 0.8405619 0.492601

inputEmbed.ancillaryEmbed.conv.module.weight f4 [4, 4, 1]
00000000: 2ac2 75bf 6ea2 bd3d 2e98 973e 804d 70bc
00000010: d509 b83f 383b 253f 74db 15bd 9f11 873e
00000020: 3ff4 cc3f 2086 213f 254a 563f a714 55be
00000030: db91 c63e b8ce afbe 84e0 563e d110 493c
-0.95999396 0.09259497 0.2960829 -0.014666915 1.4378 0.64543486 -0.03658624 0.2638063
1.6012038 0.63095284 0.83706886 -0.2080866 0.38783154 -0.343374 0.20984083 0.012272076

inputEmbed.bJetEmbed.m f4 [1, 1, 1, 5]
00000000: b56b 8240 78a0 f9bb c5a4 333f 7c96 0e40
00000010: 950d 583f
4.075648 -0.0076180063 0.70173293 2.2279348 0.84395725

inputEmbed.bJetEmbed.s f4 [1, 1, 1, 5]
00000000: 04d9 d63e 7134 843f e0dc eb3e b856 b33e
00000010: e49f 6a3e
0.41962445 1.0328504 0.46066952 0.350271 0.22912556

inputEmbed.bJetEmbed.conv.bias f4 [1, 8, 1]
00000000: eddf f0be 166d 1940 f48d 513f 419d acbe
00000010: e116 00bf 8402 81bf 7706 e53f 79e1 2d3f
-0.47045842 2.397283 0.8185723 -0.33713725 -0.5003491 -1.0078893 1.7892598 0.6792217

inputEmbed.bJetEmbed.conv.module.weight f4 [4, 5, 1]
00000000: 1b07 7bc0 dca9 143d bc31 c53f 4461 953f
00000010: a63a a6bf c488 883f 3805 94bd 6b98 173f
00000020: 4a5c 1fbf 5398 6e40 adbf a43f f1cc 3bbd
00000030: 8f98 d7be d158 f7be 04ac a3bf d5af 7940
00000040: e200 b03d 47dc 1740 380c 45bf eec7 e63f
-3.9223087 0.036294803 1.5405803 1.1670308 -1.2986648 1.0666738 -0.07227558 0.59216946
-0.62250197 3.7280471 1.2870995 -0.045849744 -0.4210858 -0.4830995 -1.278687 3.901357
0.085939184 2.3728197 -0.7697177 1.8029764

inputEmbed.bJetConv.m f4 [1, 1, 1, 8]
00000000: 2770 a93f 70d5 d13f 1254 993f b2a0 a53f
00000010: 963a ac3f 35ab c23f de12 b93f 6511 913f
1.3237351 1.6393261 1.1978781 1.2939665 1.3455379 1.5208498 1.4458883 1.1333433

inputEmbed.bJetConv.s f4 [1, 1, 1, 8]
00000000: 7fad fe3f 8663 f33f 2f00 0440 2a5f df3f
00000010: 7bfb fb3f a25d 1d40 207d cd3f ece6 0140
1.9896697 1.9014747 2.0625112 1.7450917 1.9686121 2.45884 1.605381 2.0297194

inputEmbed.bJetConv.conv.bias f4 [1, 8, 1]
00000000: a977 e2bf 2728 22be af4f 65bf dc02 c6bc
00000010: b539 b5be a545 8b3e 3cc8 7f3f 917b aabf
-1.7692767 -0.1583563 -0.8957471 -0.024171285 -0.3539559 0.27201572 0.9991491 -1.331896

inputEmbed.bJetConv.conv.module.weight f4 [4, 8, 1]
00000000: 8269 363f c3ee 4240 8dc6 adbf 7558 c13e
00000010: a258 9abf 8aec b0bf 9f37 02c0 741a 07c0
00000020: fab2 793e 4ef0 f23d 06d0 d4bf 0ac7 d5be
00000030: e3c9 a8be 60e7 3a3f 1e89 16c0 13b5 2f3e
00000040: 38dd adbf e631 af3e 29af bbbf 24b5 fe3f
00000050: 2cdf 1abf 7951 0bc0 aa63 96bf 4dfc 733f
00000060: 9828 3240 ee15 483f 4f18 e5bd 6dad 39bf
00000070: 561a 0bc0 8ed7 cfbe 8353 2dbe 256a 223f
0.7125474 3.0458229 -1.3576218 0.377628 -1.2058299 -1.3822186 -2.0346448 -2.1109896
0.2438468 0.11862241 -1.6625984 -0.41753417 -0.32966527 0.730093 -2.352119 0.17158918
-1.3583136 0.34217757 -1.466283 1.989903 -0.60496783 -2.1768477 -1.1749165 0.95306855
2.7837276 0.7815846 -0.11186277 -0.7253025 -2.1734824 -0.40594143 -0.16926388 0.63443214

inputEmbed.nonbJetEmbed.m f4 [1, 1, 1, 4]
00000000: fedd ce3f a172 03bc ee0d 493f cd28 943f
1.6161497 -0.008022935 0.7853688 1.1574951

inputEmbed.nonbJetEmbed.s f4 [1, 1, 1, 4]
00000000: 2365 b53d 3035 973f 2f84 283f 16f9 f73d
0.08857181 1.1813107 0.65826696 0.12108056

inputEmbed.nonbJetEmbed.conv.bias f4 [1, 8, 1]
00000000: 9b93 c7be 8275 90bf d90f 47bf 41ad 1f3d
00000010: ee07 0e3e 1047 603f 6d21 113f a369 39be
-0.38979802 -1.128586 -0.77758557 0.038983587 0.13870212 0.8760843 0.5669163 -0.18106703

inputEmbed.nonbJetEmbed.conv.module.weight f4 [4, 4, 1]
00000000: 8c33 2ec0 f77b 83bd 48f1 debe e40c ce3f
00000010: 9561 dbbf 287a e9bc 2a35 f1bf 7be0 123f
00000020: 8f89 14c0 61bb 353c 3607 8d3f 244c 9e3e
00000030: 1b92 18c0 b756 2dbe 511f d4bf adae 0cc0
-2.7218962 -0.06420129 -0.43543458 1.6097684 -1.7139155 -0.028500631 -1.8844349 0.5737378
-2.320896 0.011092038 1.1017826 0.30917466 -2.3839176 -0.1692761 -1.6572057 -2.1981614

inputEmbed.nonbJetConv.m f4 [1, 1, 1, 8]
00000000: 13f5 f03e f97b 593e 2416 5d3f a71e b13f
00000010: 7afb 573f c9f2 863f 264a a53f 114e 983f
0.47061977 0.21238698 0.8636191 1.3837479 0.843681 1.0542842 1.2913253 1.1898824

inputEmbed.nonbJetConv.s f4 [1, 1, 1, 8]
00000000: 7a91 823f 6d29 633f 3fc6 dc3f 0ea8 0b40
00000010: 58f1 bf3f 0eb2 c73f 685f eb3f 9023 fb3f
1.0200646 0.88735086 1.7248 2.1821322 1.4995527 1.5601213 1.8388491 1.9620228

inputEmbed.nonbJetConv.conv.bias f4 [1, 8, 1]
00000000: 9acf d03f ccc7 033f 2691 71be 901a 983e
00000010: e054 c1be 0be4 a23d 23ae 033e a36c bc3f
1.6313355 0.5147674 -0.23590526 0.29707766 -0.37760067 0.07953652 0.12859397 1.4720653

inputEmbed.nonbJetConv.conv.module.weight f4 [4, 8, 1]
00000000: bbd9 163e 0ef4 33c0 95fe 6fbf 9676 38be
00000010: 8ec4 32bf 98e9 e23f cb9b 2c40 53ea ca3e
00000020: 5beb 4840 39b6 7b3f fc9b 55bf b689 243e
00000030: 1f21 38c0 9a5f 41be 3735 633f af95 e0bf
00000040: a62a a1bf 49bc ae3f c9d2 a5bf 3112 263f
00000050: 3ab5 863e a94d 64bf 8451 a4bf ba24 e0bf
00000060: 5f00 3ebf 66bc 44be 189c 51bf 9430 943f
00000070: d722 d63f 5c54 763f ab52 f43f d558 f2bf
0.14731495 -2.811771 -0.93747836 -0.18013987 -0.6983117 1.7727537 2.6970088 0.396319
3.139365 0.98324925 -0.8344114 0.16068158 -2.8770216 -0.18884125 0.88753074 -1.754568
-1.259114 1.365121 -1.2954952 0.6487151 0.2631014 -0.89181 -1.2837377 -1.7511208
-0.74219316 -0.19212493 -0.81878805 1.1577325 1.6729382 0.9622247 1.9087728 -1.8933359

inputEmbed.lepEmbed.m f4 [1, 1, 1, 6]
00000000: 54f7 7142 e9cc fabb 13f3 8239 e36a 7a3d
00000010: f1e4 d73e 8a0d 143f
60.49153 -0.0076538217 0.00024976637 0.06113709 0.42166856 0.5783316

inputEmbed.lepEmbed.s f4 [1, 1, 1, 6]
00000000: bff2 ed41 16c8 8a3f 4dbf e83f a5d3 553d
00000010: c6d6 fc3e c6d6 fc3e
29.743528 1.0842311 1.818338 0.052203793 0.4938261 0.4938261

inputEmbed.lepEmbed.conv.bias f4 [1, 8, 1]
00000000: d210 3e3f 0d7f a83d fb89 823f dec2 29c0
00000010: 7a10 1b3c 5de9 a2bf 53dd 89bf c61b f8bf
0.74244416 0.08227358 1.0198358 -2.6525187 0.009464378 -1.2727467 -1.0770668 -1.9383476

inputEmbed.lepEmbed.conv.module.weight f4 [4, 6, 1]
00000000: 02ce e4bf 9e9a b13e c069 a2be 4b23 913e
00000010: d333 3cbf b81f 86bc 95df 3c40 d349 99be
00000020: 7cd8 22bf e44f 1abf bf17 d23e 896e 32bf
00000030: 061e a9c0 f209 063d 5024 853c 7a06 863d
00000040: 621a 493e 8e42 d8be ab42 0ebe 68f9 1ac0
00000050: 7dda 953e ff78 9cbd 4259 a7bd 91b9 06bc
-1.7875369 0.34688276 -0.31721306 0.2834724 -0.7351658 -0.016372547 2.9511464 -0.29939136
-0.6361158 -0.60278153 0.41033742 -0.69699913 -5.284915 0.03272433 0.016252667 0.06544204
0.1963897 -0.42238277 -0.1389262 -2.4214725 0.29268256 -0.07640266 -0.081713215 -0.008222953

inputEmbed.lepConv.m f4 [1, 1, 1, 8]
00000000: d921 b83f 85d5 be3f cb74 1d40 ffe0 be3d
00000010: 37eb 9b3f 520a 273f 1c8b c13f aab3 843e
1.438533 1.4908911 2.4602535 0.09320258 1.2181157 0.6525012 1.5120578 0.25918323

inputEmbed.lepConv.s f4 [1, 1, 1, 8]
00000000: d4c4 eb3f 1e12 2740 1237 1b40 da41 1a3f
00000010: 5026 0a40 2a8b a03f 3cfd 6340 6afb 5f3f
1.8419442 2.6104808 2.4252362 0.6025673 2.1585884 1.254247 3.5623312 0.87493

inputEmbed.lepConv.conv.bias f4 [1, 8, 1]
00000000: d83a a73f 9906 433f 3b39 853f 925e 88bf
00000010: a48d 75be 7bb6 45bf 553c bfbf 8fd7 4fbf
1.3064833 0.7618194 1.040809 -1.065386 -0.23979813 -0.7723157 -1.4940287 -0.8118829

inputEmbed.lepConv.conv.module.weight f4 [4, 8, 1]
00000000: ca2c bbbe 8d93 d3be 2420 01c0 d385 c5be
00000010: 9662 a5be 6f67 563f 3787 5ebf 346c a6be
00000020: 5a23 6b3e 1646 57be df99 3ebe f126 4e3f
00000030: 568e 4cbe cedb b23e cf1e ecbf 18d0 5b3f
00000040: 1f1b a23c 6e9c ea3b 1aca ee3f e472 45be
00000050: 19cf 7dbe c49f f43d 617d 99bf 7907 93be
00000060: e4fc 4dbd 4c5e 8cbe fcf7 88be d092 f1bf
00000070: 98b4 4d3e f63d 8c3f 4d70 9fbf 118c fdbf
-0.3655761 -0.4132351 -2.0175867 -0.38578662 -0.32301778 0.8375158 -0.8692507 -0.32504427
0.22962704 -0.2102283 -0.18613385 0.8052817 -0.19976172 0.34933323 -1.8446902 0.858644
0.019788323 0.007159761 1.8655427 -0.19282109 -0.24786033 0.119445354 -1.1991388 -0.2871664
-0.050290003 -0.27415693 -0.26751697 -1.8872929 0.20088422 1.0956409 -1.2456146 -1.980837

inputEmbed.nuEmbed.m f4 [1, 1, 1, 2]
00000000: 5144 8342 86ea 5d3c
65.63343 0.013544684

inputEmbed.nuEmbed.s f4 [1, 1, 1, 2]
00000000: 86a0 1742 b701 e63f
37.90676 1.7969273

inputEmbed.nuEmbed.conv.bias f4 [1, 8, 1]
00000000: d8b2 9d3f dffe cc3f 1422 f43f e7f5 3dbf
00000010: e04a 5ebf 2042 65bf 9afe 83bf cd47 b83f
1.2320204 1.601528 1.90729 -0.7420334 -0.86833 -0.89554024 -1.0312073 1.4396912

inputEmbed.nuEmbed.conv.module.weight f4 [4, 2, 1]
00000000: aa73 edbf ac62 693f a531 d0bf a6d4 dfbd
00000010: b94e f7bf feda c6bd b5de 8d3f 1195 fd3e
-1.8550923 0.91166186 -1.626515 -0.10929231 -1.9320899 -0.09709738 1.108359 0.4952779

inputEmbed.nuConv.m f4 [1, 1, 1, 8]
00000000: fa2c b53f c65d be3f 1e1e e13f 3b82 973c
00000010: a090 c43e 39c0 6c3e 0d13 a33e cb45 8a3f
1.4154351 1.4872367 1.7587316 0.018494716 0.3839159 0.23120202 0.31850472 1.0802549

inputEmbed.nuConv.s f4 [1, 1, 1, 8]
00000000: 253c b43f 7e04 a33f 74a0 be3f 1062 193f
00000010: d9b9 9c3f 69fc 803f fd84 973f cf40 653f
1.4080855 1.2735746 1.4892716 0.59915257 1.2244216 1.007703 1.183746 0.89552015

inputEmbed.nuConv.conv.bias f4 [1, 8, 1]
00000000: 02f5 71c0 26d8 363f 56ba 7340 6ae6 d5be
00000010: d2c8 54c0 b216 94c0 6696 d0bf f087 0dc0
-3.780579 0.71423566 3.808248 -0.41777354 -3.324757 -4.6277704 -1.6295898 -2.211422

inputEmbed.nuConv.conv.module.weight f4 [4, 8, 1]
00000000: 2b86 ee3e 110a d23e cb6a ce3e a995 ec3e
00000010: 04e4 c8bd 5273 243e 9bad 313e 03c0 fcbb
00000020: b6d4 dabf cb6b d8be fbce 40bf 1c82 81bf
00000030: f4e6 6abf b8c0 74bf b9be 69bf c38e f1bd
00000040: 30a7 6d3a 90cd b83e d477 093f 1cdc 46bf
00000050: 017a 37bf d059 9dbf cb63 8dbf 7acb 8f3e
00000060: 6787 61bf 77be fabe 6439 2dbf 0199 71bf
00000070: 73d3 243d cf15 d5be 33cd 19bf 4bf8 113e
0.46586737 0.41023305 0.40315852 0.46207932 -0.098091155 0.16059616 0.17351381 -0.0077133193
-1.7096164 -0.4226974 -0.7531583 -1.0117831 -0.91758657 -0.95606565 -0.91306645 -0.11794808
0.00090657454 0.36094332 0.5369847 -0.7767961 -0.7167054 -1.2293034 -1.1046079 0.28084928
-0.8809723 -0.48973438 -0.67665696 -0.9437409 0.040240716 -0.416182 -0.60078734 0.14254873

inputEmbed.bWhadEmbed.m f4 [1, 1, 1, 4]
00000000: 04f8 ad42 3890 76bc c2f3 3ebb 1115 6943
86.984406 -0.015049033 -0.002913699 233.08229

inputEmbed.bWhadEmbed.s f4 [1, 1, 1, 4]
00000000: 15d6 3a42 08fa da3f 10e3 e73f e44a e342
46.709064 1.7107553 1.8116169 113.64627

inputEmbed.bWhadEmbed.conv.bias f4 [1, 8, 1]
00000000: 547c d23f 98e7 763e 3e6f f9be b525 5dbe
00000010: 6344 78be 37c2 0b40 ccce d8bf 8950 7f3f
1.6444192 0.24111784 -0.48717684 -0.21596415 -0.24244837 2.183729 -1.6938109 0.9973226

inputEmbed.bWhadEmbed.conv.module.weight f4 [4, 4, 1]
00000000: ab7a 9d3c 7215 70bf 92db 5a3e 89e4 f2bf
00000010: 1150 65c0 ef8e 08bf 5658 e33e a1c3 5b3e
00000020: 1168 6c40 6e49 3f3e abe4 9d3e 8296 823e
00000030: 64e8 123f 05cf f6bd 7e94 b0bc c125 c040
0.019223532 -0.9378272 0.21372822 -1.8975993 -3.5830119 -0.533431 0.44403332 0.21461345
3.6938517 0.18680355 0.30838522 0.25505453 0.5738585 -0.120512046 -0.021555182 6.0046086

inputEmbed.bWhadConv.m f4 [1, 1, 1, 8]
00000000: 5830 0040 66b9 b73f 4321 933f 3e3e ef3f
00000010: fca3 4f3f 9911 2040 6b14 123f f73c 2940
2.0029507 1.4353454 1.1494526 1.869087 0.81109595 2.501074 0.57062405 2.644346

inputEmbed.bWhadConv.s f4 [1, 1, 1, 8]
00000000: ed3e cb3f 90d5 fa3f c1f0 1640 7ce7 8d40
00000010: 5abe 0140 d51d 4640 9ce7 9b3f f4a8 2040
1.5878578 1.9596424 2.3584445 4.4345074 2.0272431 3.0955708 1.2180057 2.510312

inputEmbed.bWhadConv.conv.bias f4 [1, 8, 1]
00000000: b1d6 9540 ec3f 4640 9858 8d3d 892f dfbf
00000010: d51e 263e 0fb3 3ebe ba16 333d 207e 0040
4.6824574 3.0976515 0.069016635 -1.7436382 0.16222699 -0.18622993 0.043722846 2.007698

inputEmbed.bWhadConv.conv.module.weight f4 [4, 8, 1]
00000000: 6218 a8be eb50 28bf d706 1c3f 24d8 0d3e
00000010: f5e3 153d a09f 7e3f 2b4d 3f3f 6740 3fbf
00000020: 5ebb 24bf 247f e6bd e70b 9cbf 67da d8be
00000030: e4a6 223e af5a 81bf 37ef fa3e 27dc b4bf
00000040: bca1 15be c564 73bd fe6f f2be b00e 023f
00000050: febb 323d fc08 d4bf 845b 64be b35a 32c0
00000060: a870 8fbd 4001 21bf 78d5 c43f 0416 bf3f
00000070: f88e 183f 54a0 b73f 009e 14bf a58b a8be
-0.32831103 -0.6574847 0.60947937 0.13851982 0.03659435 0.9946232 0.74727124 -0.74707645
-0.643484 -0.11254719 -1.2191132 -0.42354128 0.15883976 -1.01058 0.4901063 -1.4129685
-0.14612478 -0.059422273 -0.47351068 0.5080366 0.043636315 -1.6565242 -0.22300535 -2.7867858
-0.07003909 -0.6289253 1.5377645 1.4928594 0.59593153 1.4345803 -0.5805359 -0.3291904

inputEmbed.bWlepEmbed.m f4 [1, 1, 1, 4]
00000000: fde8 9142 99f2 3ebc 4d6f 1aba f10a e342
72.955055 -0.0116545195 -0.0005891219 113.52137

inputEmbed.bWlepEmbed.s f4 [1, 1, 1, 4]
00000000: 6dfe 2042 30dd c53f 93a7 e83f b186 5542
40.248463 1.5458126 1.817614 53.381535

inputEmbed.bWlepEmbed.conv.bias f4 [1, 8, 1]
00000000: 0191 d5be b3e8 25bf 39ea 0340 5d34 4dbe
00000010: a141 6640 b141 9740 cc84 b63f f989 9b40
-0.41712192 -0.64808196 2.0611708 -0.20039506 3.5977557 4.726769 1.4259276 4.8605924

inputEmbed.bWlepEmbed.conv.module.weight f4 [4, 4, 1]
00000000: 48ca 0540 981e 923e 3c64 393e 8158 1fbf
00000010: 2b53 38be 91ba db3e b401 613e 6127 6e40
00000020: dcd4 a03f 07f3 33be 7b34 78bd df22 d83f
00000030: 5958 cebe b1a1 99be 28cd e6bc 9a3c 7340
2.0904713 0.28538966 0.18104643 -0.6224442 -0.18000476 0.42915776 0.21973306 3.7211535
1.256496 -0.17573176 -0.060596924 1.6885642 -0.4030178 -0.30006173 -0.028173998 3.8005738

inputEmbed.bWlepConv.m f4 [1, 1, 1, 8]
00000000: 3afa 003f 9cb1 733f 58df f03f 1b7c 8a3f
00000010: 6e49 6f40 7214 9f40 0e17 a53f 4347 a140
0.50381815 0.95192885 1.8818159 1.0819124 3.7388568 4.971246 1.2897661 5.039949

inputEmbed.bWlepConv.s f4 [1, 1, 1, 8]
00000000: 36f2 a93f c58f 2240 a6d0 ff3f 9a49 2b40
00000010: 6db8 0640 16f2 3140 ab13 a83f 5b76 3540
1.3277042 2.540025 1.998555 2.6763673 2.1050065 2.7804008 1.3131002 2.8353488

inputEmbed.bWlepConv.conv.bias f4 [1, 8, 1]
00000000: 9077 0f40 4189 0dbf cf9e 39c0 8ab9 3d3f
00000010: 6c4a 03bf adde 46bf f15a 8d3c 1a70 063f
2.2416725 -0.5528756 -2.900318 0.74111235 -0.51285434 -0.77683526 0.017255278 0.52514803

inputEmbed.bWlepConv.conv.module.weight f4 [4, 8, 1]
00000000: ca28 0d3f d22f 46c0 b4e1 8bbf 709d 58c0
00000010: b661 7abf 836c 3e3f 58bc 8a3f 9e63 e03e
00000020: aa2a 03bf 5150 32c0 1167 a4bf a52a 30c0
00000030: f4b4 773f 03f7 6240 7052 a23f d27f ba3f
00000040: 86af 25bf dd3b 943e 749f 3bbf 1088 5d3f
00000050: a754 a0bf ca04 1140 f448 c53f 9e3b cf3f
00000060: b55e 5140 f4b0 d63e d673 ec3f 0c0a a13f
00000070: 5115 87bf be27 abbf 041a 20c0 ef87 a5bf
0.55140364 -3.0966687 -1.0928254 -3.3846092 -0.97805345 0.74384326 1.0838728 0.43826002
-0.51236975 -2.7861521 -1.2843953 -2.7526028 0.9676049 3.5463264 1.2681408 1.4570258
-0.6472095 0.28951922 -0.7329018 0.8653574 -1.2525834 2.2659173 1.5412889 1.6190069
3.2714055 0.4193188 1.847285 1.2581191 -1.055338 -1.3371503 -2.5015879 -1.2932109

inputEmbed.MdRttEmbed.m f4 [1, 1, 1, 3]
00000000: 11a8 a040 65b8 1440 0000 003f
5.020516 2.3237545 0.5

inputEmbed.MdRttEmbed.s f4 [1, 1, 1, 3]
00000000: d72d fa3e 6ce9 523f 0000 003f
0.48863098 0.82387424 0.5

inputEmbed.MdRttEmbed.conv.bias f4 [1, 8, 1]
00000000: a6a3 23be f441 f5bf aaed c4be 6361 46bf
00000010: 9999 443c 6ffc 9a3f 1ebc 3740 ca2b d3bf
-0.15980396 -1.9160752 -0.38462573 -0.7749235 0.011999511 1.2108287 2.8708568 -1.6497738

inputEmbed.MdRttEmbed.conv.module.weight f4 [4, 3, 1]
00000000: 4816 0241 d855 f43e 47b2 dc3f aeb9 36c0
00000010: 6306 8cbf 92a2 9fbf e266 6e3e 5bb5 2ac0
00000020: 42ac 83bf 3ff4 1cc0 ef76 07c0 6f63 ee3e
8.13044 0.47721744 1.7241906 -2.855083 -1.0939449 -1.2471488 0.23281434 -2.667319
-1.0286944 -2.4524076 -2.1166341 0.46560237

inputEmbed.MdRttConv.m f4 [1, 1, 1, 8]
00000000: 6a07 2040 dfb1 d63e 746c 3c3f ac74 8a3f
00000010: 6d20 3540 2066 cd3f f49e 2b40 7a1d 2a3f
2.5004525 0.4193258 0.73602986 1.0816855 2.830104 1.6046791 2.6815767 0.6645123

inputEmbed.MdRttConv.s f4 [1, 1, 1, 8]
00000000: 6b8d 8840 59ec b13f 504b be3f 27ec 0a40
00000010: 6194 9140 0ec8 0840 08df 1240 da9f d23f
4.267263 1.3900253 1.4866734 2.1706636 4.5493627 2.1372104 2.2948627 1.6455033

inputEmbed.MdRttConv.conv.bias f4 [1, 8, 1]
00000000: ec8d 843c 1d14 c0bc 7920 afbc f661 493d
00000010: 3e0c 29bd 6dc0 6bbd de01 14bd ab8c 40bd
0.016180955 -0.02344709 -0.021377789 0.04916569 -0.04127144 -0.05755656 -0.036134593 -0.04700915

inputEmbed.MdRttConv.conv.module.weight f4 [4, 8, 1]
00000000: d268 5ec0 a336 89bc fe5f 833f 8468 763f
00000010: cc5d e13d 2db9 fbbf f703 9dbd 60e4 7e3f
00000020: 84f7 7c3f e51f 103f cff0 edbf dd08 fcbe
00000030: 007e 0a3f 4f19 933f e509 3040 3280 b1be
00000040: c005 97be 87ca a83f 3de9 4e40 24fd b13f
00000050: c2db 35be eee8 26bd 8551 c33f a9d2 d93e
00000060: 0b94 6ac0 739c 40bf 2fb2 12bf ffce 30bf
00000070: e6ad aabf 4835 a4bf ea04 ce3e 61c1 9d3f
-3.4751477 -0.016749686 1.026367 0.9625323 0.110042185 -1.9665886 -0.07666772 0.9956722
0.9881518 0.5629867 -1.8589114 -0.49225512 0.5409851 1.1492099 2.750604 -0.34668118
-0.29496574 1.3186806 3.2329857 1.3905377 -0.17759612 -0.040749483 1.5259253 0.42543533
-3.6652858 -0.7523872 -0.57303137 -0.6906585 -1.333432 -1.282876 0.40238124 1.232464

inputEmbed.MdREmbed.m f4 [1, 1, 1, 4]
00000000: df5e 9b40 2950 0640 45ab aa3e 45ab aa3e
4.855331 2.0986426 0.33333793 0.33333793

inputEmbed.MdREmbed.s f4 [1, 1, 1, 4]
00000000: d8a1 063f d7ae 4b3f 275c f13e 275c f13e
0.52590704 0.7956366 0.4714062 0.4714062

inputEmbed.MdREmbed.conv.bias f4 [1, 8, 1]
00000000: a571 c4bf d1be 94bf c199 efbe 41a7 4dbf
00000010: e9b6 eb3e a4ec b7bf 54af c3bf 74ce 3d3f
-1.5347182 -1.1620733 -0.46796992 -0.80333334 0.46037987 -1.4369092 -1.5287881 0.7414315

inputEmbed.MdREmbed.conv.module.weight f4 [4, 4, 1]
00000000: b70c babf d8ac 1740 c608 313f 0ed2 c73f
00000010: f212 a5bf 91f8 04c0 bba4 913f 9ae3 8f3f
00000020: a53d 1fc0 c042 2cbf 7916 92bf ae9d bdbf
00000030: bb66 4440 fa5a 733e 6523 0abf 62dc 9dbe
-1.453513 2.3699245 0.6915401 1.5610979 -1.2896407 -2.0776713 1.1378397 1.1241333
-2.4881375 -0.6728935 -1.1413108 -1.4813745 3.0687702 0.23765174 -0.5396026 -0.308322

inputEmbed.MdRConv.m f4 [1, 1, 1, 8]
00000000: 94b5 c43e d8d1 103f 200e dd3f ac22 023f
00000010: bc06 b33f 585f f43e 18c6 ca3f 1104 a73f
0.38419783 0.56570196 1.7269936 0.50834155 1.398643 0.47728992 1.5841703 1.3048116

inputEmbed.MdRConv.s f4 [1, 1, 1, 8]
00000000: 8178 8d3f 30c8 af3f 4d0b 0040 9ac1 b83f
00000010: 1bdd c13f 02e3 c93f f560 2240 a231 e83f
1.10524 1.3732967 2.0006897 1.4434083 1.5145601 1.5772402 2.5371678 1.8140147

inputEmbed.MdRConv.conv.bias f4 [1, 8, 1]
00000000: 5c80 f73f b6c4 06c0 d997 64bf b4da 23bf
00000010: 93e7 94c0 1bba c4bf 3a4b 84c0 9e2a ccbf
1.9336047 -2.1057563 -0.892942 -0.6400559 -4.6532683 -1.5369295 -4.134183 -1.5950506

inputEmbed.MdRConv.conv.module.weight f4 [4, 8, 1]
00000000: 12de 31be 024e d8bf a6cc 783e 893f bcbe
00000010: 2756 483f 6bf3 a63d bb92 a6be f003 04c0
00000020: a4fd 943e a88b b23e 790c a03e 0c64 1040
00000030: 0e6b 703f 5738 99be 80a8 b03f 1682 3f3f
00000040: 6515 2740 d6b1 8cbf 6447 d9bf 3d6d 513f
00000050: 3f5b 9cbf 4d8f 17c0 0f55 a33f 9f8a 953e
00000060: b50d 573f 88c3 7a3f 726f ecbe 811d 663e
00000070: c508 92be 7426 9b3e 4334 b7bf af43 5940
-0.1736987 -1.6898806 0.24296817 -0.36767223 0.7825646 0.08151897 -0.3253382 -2.0627403
0.29099762 0.34872174 0.31259516 2.2561064 0.9391335 -0.29925796 1.3801422 0.7480787
2.6106808 -1.0991771 -1.6974912 0.8180731 -1.2215346 -2.3681214 1.2760333 0.29207322
0.8400529 0.97954607 -0.46178776 0.22472192 -0.28522316 0.30302775 -1.4312824 3.394756

inputEmbed.bbDiJetEmbed.m f4 [1, 1, 1, 4]
00000000: b08b 9040 dabf 1dbc aaba 0640 628d 9240
4.5170517 -0.0096282605 2.105143 4.5797586

inputEmbed.bbDiJetEmbed.s f4 [1, 1, 1, 4]
00000000: 7c14 c33e abe6 973f 943f 4e3f cd8c 873e
0.38101566 1.1867269 0.8056576 0.2647461

inputEmbed.bbDiJetEmbed.conv.bias f4 [1, 8, 1]
00000000: 3ac5 a23f 7633 8ebf 9171 ddbd 99df 9a3f
00000010: ea02 763f 21e9 a43f 16d3 11c0 0210 31bf
1.2716439 -1.1109455 -0.10812677 1.2099487 0.96098197 1.2883645 -2.2785087 -0.6916505

inputEmbed.bbDiJetEmbed.conv.module.weight f4 [4, 4, 1]
00000000: 3ddd e03f cc8f d03d 49d3 d4bf 8e42 10bf
00000010: b059 8d3f 2b08 8ebe c365 353f 8295 1140
00000020: f897 453f 15a3 04bd bd30 813d 01f2 76c0
00000030: ee3b c83f 9b20 d3bd 65ff b73f e4e7 613e
1.7567517 0.10183677 -1.6626979 -0.56351554 1.1042995 -0.27740607 0.708584 2.2747502
0.7718501 -0.03238209 0.06308124 -3.8585207 1.5643289 -0.103089534 1.4374815 0.22061116

inputEmbed.nonbDiJetEmbed.m f4 [1, 1, 1, 4]
00000000: 2c05 8a40 7b9d 40bc f074 c93f 2e82 9540
4.3131313 -0.011756296 1.5738811 4.672141

inputEmbed.nonbDiJetEmbed.s f4 [1, 1, 1, 4]
00000000: d15c 243f 6401 bd3f 852f 683f f27e 123f
0.64204127 1.4766049 0.9069751 0.57224953

inputEmbed.nonbDiJetEmbed.conv.bias f4 [1, 8, 1]
00000000: 481e 0940 6854 983f 321e ab3f f693 a0bf
00000010: fa78 c13e 065d 0dc0 d05e 393f 4121 843e
2.1424732 1.1900759 1.336859 -1.2545154 0.3778761 -2.2088027 0.724103 0.2580662

inputEmbed.nonbDiJetEmbed.conv.module.weight f4 [4, 4, 1]
00000000: c5a6 523d b5ef 0e3e a3c4 173e bdff 7d40
00000010: abf2 02c0 4e7e 86bc 3156 883d af0c 89be
00000020: 7ac6 41c0 ac40 e13c 8905 db3d ee1b eb3d
00000030: 026a aa3f 76c1 193e 20d2 333e 5cf4 3ac0
0.051428575 0.13958628 0.14821105 3.968734 -2.0460613 -0.016417649 0.06657065 -0.2676749
-3.027739 0.027496658 0.10694415 0.114799365 1.3313601 0.15015206 0.17560625 -2.9211645

inputEmbed.bbDiJetConv.m f4 [1, 1, 1, 8]
00000000: 0000 0000 0000 0000 0000 0000 0000 0000
00000010: 0000 0000 0000 0000 0000 0000 0000 0000
0.0 0.0 0.0 0.0 0.0 0.0 0.0 0.0

inputEmbed.bbDiJetConv.s f4 [1, 1, 1, 8]
00000000: 0000 803f 0000 803f 0000 803f 0000 803f
00000010: 0000 803f 0000 803f 0000 803f 0000 803f
1.0 1.0 1.0 1.0 1.0 1.0 1.0 1.0

inputEmbed.bbDiJetConv.conv.bias f4 [1, 8, 1]
00000000: 0000 0000 0000 0000 0000 0000 0000 0000
00000010: 0000 0000 0000 0000 0000 0000 0000 0000
0.0 0.0 0.0 0.0 0.0 0.0 0.0 0.0

inputEmbed.bbDiJetConv.conv.module.weight f4 [4, 8, 1]
00000000: d912 31be 00e7 853e 4c4f 90be bc42 ac3e
00000010: 7554 00be eb26 083e 55d1 5c3e 7bfc 4e3e
00000020: f0c5 a63d d85a 3fbe 8536 5ebd 264a a23c
00000030: 5019 a73e ed43 423d 5e7b a0be 6084 2abe
00000040: fe8a 9abe 1e58 79bd b002 7e3d 9f34 463e
00000050: 7de0 5e3e 4bfc 9a3c 2035 6d3e 5089 b9bd
00000060: f9d7 25bd ab6d 93bd d67a a2be 3411 a13e
00000070: 6f6d a83e 3ab8 83be aab0 073e 9e87 44bd
-0.17292346 0.26152802 -0.281855 0.33644664 -0.12532218 0.13296096 0.21564229 0.20213501
0.08143222 -0.18686998 -0.054251213 0.019810747 0.326365 0.04742806 -0.31344122 -0.1665206
-0.30184168 -0.06087505 0.06201428 0.19356011 0.21765323 0.01891913 0.23164797 -0.090593934
-0.04048917 -0.07198652 -0.3173434 0.31458437 0.3289599 -0.2572649 0.13250986 -0.047980897

inputEmbed.nonbDiJetConv.m f4 [1, 1, 1, 8]
00000000: 0000 0000 0000 0000 0000 0000 0000 0000
00000010: 0000 0000 0000 0000 0000 0000 0000 0000
0.0 0.0 0.0 0.0 0.0 0.0 0.0 0.0

inputEmbed.nonbDiJetConv.s f4 [1, 1, 1, 8]
00000000: 0000 803f 0000 803f 0000 803f 0000 803f
00000010: 0000 803f 0000 803f 0000 803f 0000 803f
1.0 1.0 1.0 1.0 1.0 1.0 1.0 1.0

inputEmbed.nonbDiJetConv.conv.bias f4 [1, 8, 1]
00000000: 0000 0000 0000 0000 0000 0000 0000 0000
00000010: 0000 0000 0000 0000 0000 0000 0000 0000
0.0 0.0 0.0 0.0 0.0 0.0 0.0 0.0

inputEmbed.nonbDiJetConv.conv.module.weight f4 [4, 8, 1]
00000000: 0287 cfbd db88 a73c 9316 503e bebb 3c3e
00000010: a7d7 f7bd 518a 76be f304 a33e 52b0 66be
00000020: 9ca4 053e f7f6 103e 28af 673e 7399 77be
00000030: 54d8 97be 1d2b 113e 6d4c 503e 2bcc 083d
00000040: 287c 47be 74af afbe 4bff 8dbe 7d5e 85be
00000050: df08 44bd f9ba 183e faa8 0fbc f4a2 8b3e
00000060: 39b5 a1be d420 d43c fd5c 833e 1865 9f3e
00000070: f82c 4c3e 472a cd3d aebd b2be 9fbf aabe
-0.101331726 0.020451 0.20321111 0.18430993 -0.12101679 -0.24076201 0.31839713 -0.22528198
0.13051075 0.1415671 0.2262541 -0.2417963 -0.29657233 0.14176603 0.20341654 0.033397835
-0.19480956 -0.34313548 -0.27733836 -0.2604865 -0.047860023 0.14915074 -0.0087683145 0.2727276
-0.31583574 0.02589456 0.25656882 0.31131816 0.19939029 0.100178294 -0.3491034 -0.3334932

bbDiJetResNetBlock.reinforce.0.conv.m f4 [1, 1, 3, 8]
00000000: 67e8 1740 787e 253e e6d2 873f e754 ef3e
00000010: c6b7 da3f c105 e43f 6a00 a23f 4c64 0a40
00000020: 141a 2240 fbe1 073f 52a1 353f da8e 9640
00000030: 493d 3140 1624 e33f e2fd 3940 02e1 283d
00000040: cf89 693f a482 a73f 3128 9a3f e2a7 a43f
00000050: ede4 ba3f 0299 963e f092 0240 3b3a 843f
2.3735597 0.16161525 1.0611236 0.46744463 1.7087333 1.7814256 1.2656376 2.1623716
2.5328417 0.53079194 0.7094928 4.704938 2.7693655 1.7745388 2.9061208 0.04123021
0.91225904 1.3086743 1.2043515 1.2863734 1.4601113 0.2941361 2.0402184 1.033027

bbDiJetResNetBlock.reinforce.0.conv.s f4 [1, 1, 3, 8]
00000000: b5a5 3e40 a489 613f fdc7 cc3f 1458 bf3f
00000010: 9142 5440 5456 f43f c81c 2240 84f1 3740
00000020: 51ad 7540 1bfb 9f3f 0725 c73f 0fd0 8440
00000030: 3ec6 8840 7530 1340 f478 6f40 f9fb 123f
00000040: 8503 f33f d6fa ba3f f6b6 0040 e0a3 0f40
00000050: 0f7d 2040 aeed 673f 60a4 4640 9874 dc3f
2.978864 0.8810065 1.5998532 1.4948754 3.316563 1.9088845 2.5330067 2.874116
3.8387034 1.2498506 1.5558175 4.150398 4.2741995 2.2998326 3.7417574 0.5741573
1.8985449 1.4607799 2.011167 2.2443771 2.507633 0.90597045 3.1037827 1.7223082

bbDiJetResNetBlock.reinforce.0.conv.conv.bias f4 [1, 8, 1]
00000000: 009e 1bc0 0b65 e13f 4b78 0940 a14b bc3f
00000010: 2ba0 8e3f 8cf3 263f 0c48 a3bf 106f cac0
-2.4315186 1.7608961 2.147967 1.471058 1.1142629 0.65215373 -1.2756362 -6.3260574

bbDiJetResNetBlock.reinforce.0.conv.conv.module.weight f4 [4, 8, 3]
00000000: e416 01bf c740 56bf b61e 613f f903 9a3e
00000010: 35bb cbbe 7376 5340 ea8d ed3d caa2 6c3e
00000020: 1d67 493e a37a 593e 154c e13e e31d 803f
00000030: 2d61 0e3e 1251 76bf 19cd 0fbf 50e4 2cbf
00000040: b92a da3e 1e64 78c0 9a04 573e 01e2 1dbe
00000050: e149 3540 1114 223e 80b1 5e3d 5b9a 9f3e
00000060: 4570 42bf 463e c2be 9065 07be 5817 4ebf
00000070: f5c9 7e3f 4178 3440 ba00 8b3f 7a71 7fbc
00000080: 66db 73bf 2b26 0ac0 44b2 1940 a880 b03f
00000090: 1eac 45bf ddb6 d13d 245a ff3f 9288 f3be
000000a0: 7535 3b3f 1715 2ac0 2e0b a33f 0ece 963f
000000b0: be8c 0c3f 3d6b 303f f62f 8cbd d5f5 ae3f
000000c0: 39b2 1a40 7ffc 303f d8a4 94be d507 25be
000000d0: fad8 d9bc 1ed3 ef3f 6d5e 1dbf e557 263f
000000e0: b100 5dbe 0a4e 73bf 4017 953f 49e7 2abf
000000f0: dcbf 9cbe a71e 1cc0 dcae acbd 59d1 243f
00000100: c4f8 b6be e22a 84c0 0013 abbf 2f26 d0bf
00000110: 1b6e 2e3f 054f 2c3d f9ae b6bf a1eb d53f
00000120: 6b1d bb3d 2d22 683e de81 803e 6466 bdbf
00000130: 3638 6fbf ca91 8ebf 7de8 113f 7954 fd3c
00000140: 2d35 953e e984 ba3e bbdb c73d c0d3 77c0
00000150: 764d f7bf c8ff fcbf 66e9 efbd 5fe4 813f
00000160: 4f74 2d40 3ad4 80bf 910f 83bf 5a51 66bf
00000170: 47ee a13f 9266 1cbf 0d23 2dbf 261e 0d3f
-0.50425553 -0.8369259 0.87937486 0.30081156 -0.39791265 3.3041046 0.115993336 0.23108974
0.19668241 0.21238188 0.44003358 1.0009121 0.13904257 -0.96217453 -0.5617233 -0.6753588
0.4261072 -3.8811107 0.20997849 -0.15418245 2.8326342 0.15827967 0.054368496 0.3117245
-0.7595256 -0.37938136 -0.13222337 -0.8050437 0.9952691 2.8198397 1.0859597 -0.01559102
-0.9525665 -2.1585796 2.4015055 1.3789263 -0.77215755 0.102399565 1.9949384 -0.47565132
0.73128444 -2.6575372 1.2737787 1.1781633 0.54902256 0.6891363 -0.06845085 1.3668772
2.4171278 0.6913528 -0.29032016 -0.16116269 -0.02659272 1.8736303 -0.6147221 0.64977866
-0.21582295 -0.95040953 1.164772 -0.66759163 -0.30615127 -2.4393709 -0.08431789 0.6438194
-0.35736668 -4.1302347 -1.3365173 -1.6261653 0.6813676 0.042067546 -1.4272147 1.6712533
0.091364704 0.22669287 0.2509908 -1.4796872 -0.93445146 -1.1138241 0.56995374 0.030924069
0.29142132 0.36429527 0.09758707 -3.8722992 -1.9320514 -1.9765558 -0.11714439 1.0147818
2.710224 -1.0064766 -1.0239125 -0.8996788 1.2650841 -0.6109401 -0.6763161 0.5512413

bbDiJetResNetBlock.reinforce.1.conv.m f4 [1, 1, 3, 8]
00000000: 8ec9 7340 24b3 b93e cc3c 2e40 fd3d 9b3f
00000010: 9aaf 0440 4bee 2e40 08e1 e23f 0f9f b840
00000020: 7f76 1e40 4d34 4e3f 36fd c03f b3fc 0941
00000030: 7c7c 9040 788c 7b40 3ad2 9940 80ae 3a3f
00000040: 70af a23f 279b a740 8614 9040 ba71 4b40
00000050: 8155 5940 9d04 6340 36ce 6240 8439 203f
3.809177 0.36269486 2.7224607 1.2128292 2.0732179 2.7332942 1.7724924 5.7694163
2.4759824 0.80548555 1.5077274 8.624194 4.515196 3.9304485 4.8069124 0.72922516
1.2709789 5.2376895 4.5025053 3.1788163 3.3958437 3.5471566 3.543836 0.6258776

bbDiJetResNetBlock.reinforce.1.conv.s f4 [1, 1, 3, 8]
00000000: 51eb 6d40 7e32 a63f 9610 3a40 7fa7 3140
00000010: ffc0 8f40 0a5d 6340 6969 8a40 e8bb a940
00000020: 84f3 6240 0a90 0e40 d2fe 2640 f002 e340
00000030: 5d5f dd40 36de 8c40 7fdd e340 4b20 f63f
00000040: fe46 3040 a2d1 ce40 4b90 ad40 16ef 6140
00000050: 246d ab40 e24d ab40 40e5 bc40 a737 1640
3.7174876 1.2984159 2.9072623 2.7758482 4.492309 3.5525537 4.3253675 5.304188
3.546113 2.2275414 2.609303 7.0941086 6.917891 4.4021254 7.120788 1.9228605
2.754333 6.46309 5.423864 3.5302176 5.357073 5.353257 5.9029846 2.3471467

bbDiJetResNetBlock.reinforce.1.conv.conv.bias f4 [1, 8, 1]
00000000: b60c 3f3e a4a5 07c0 1d5b 6fbd 4e6c 89bd
00000010: cd69 04bf 1f6f 43c0 dd31 333f d7c1 273f
0.18657193 -2.119485 -0.0584365 -0.067101106 -0.5172394 -3.0536573 0.6999796 0.6553015

bbDiJetResNetBlock.reinforce.1.conv.conv.module.weight f4 [4, 8, 3]
00000000: 6d8f 73bf 7661 113f 471b 813f 0971 1340
00000010: 7009 7e3f 6c82 38bf e87c 0e3f 86e0 e73e
00000020: 1e80 0a40 3aff 6cbe 4c4a a1bf 4504 c23f
00000030: 847f 48bf f9ca 7bbf 0bf5 cd3e 0b3e 1cbf
00000040: 638e 903f e813 603f 1784 c0bf 9f56 923f
00000050: c11b a43e 3bde 86bf 408a aa3d 2bd0 cabf
00000060: 3ca9 ee3e 52c8 c13d cda5 20c0 4126 a4bd
00000070: 7975 873e 1d72 b8be c651 3b3c 83aa 0c3f
00000080: d6a7 9fbf dbd9 373e 8471 bbbf 9793 f9bf
00000090: ab14 65bf 09d7 2abf 9d10 0740 c362 35bf
000000a0: ee36 1bbf a6d8 7640 4417 dbbf bac5 16c0
000000b0: ac2d d93e 5fa3 b7bf 0afc d5bc e7ab e6bf
000000c0: 97ae ccbd 2089 1e3f 6246 b83f 21ea 2abe
000000d0: e728 afbf 6ec6 333f 9a6d 0d3f 3594 b83e
000000e0: e140 64bf 18fb 51bf e35e 40bf d8e1 fcbe
000000f0: ff64 b0bf 7b39 85be b0bb fdbf d556 493e
00000100: 338c 883e 6e2a 7ac0 09d2 6ebf 6689 6cbf
00000110: e5f7 72c0 bb84 e23f f910 803f ffad 13bf
00000120: 11e1 0940 593c 1740 0549 ce3f 7509 d43e
00000130: 17c9 a23f c536 5a3f a2d8 5c3f eb72 c33f
00000140: 1257 8bbf 9d19 e3be 6c25 15c0 1da8 4cbf
00000150: 787f 1ebf 0c0a a0bf eaa3 5cbc 7f40 003f
00000160: d4f5 d5be c468 b9be bae9 113e e2fd 9ebf
00000170: c99c a7bf 7825 ca3f 11ff e73f 9239 99bf
-0.95140725 0.5678934 1.0086449 2.303774 0.9923315 -0.7207401 0.5565934 0.45288485
2.1640697 -0.23144236 -1.2600799 1.5157553 -0.78319573 -0.98356587 0.40226015 -0.6103217
1.1293453 0.87530375 -1.5040311 1.1432685 0.32052425 -1.0536569 0.0832715 -1.5844778
0.4661349 0.09462036 -2.5101197 -0.08015109 0.26456812 -0.36024562 0.0114330705 0.5494768
-1.2473094 0.17954199 -1.4644017 -1.9498166 -0.8948466 -0.6673437 2.110389 -0.70853823
-0.6063069 3.8569732 -1.7116475 -2.3558183 0.42417657 -1.4346732 -0.026121158 -1.802121
-0.09994238 0.61927986 1.4396479 -0.16690876 -1.3684357 0.70224655 0.55245364 0.36050573
-0.891615 -0.82023764 -0.75144786 -0.49391055 -1.3780822 -0.26020417 -1.9822903 0.1966203
0.26669464 -3.9088397 -0.9328924 -0.92397153 -3.7963803 1.7696756 1.000518 -0.5768737
2.154362 2.3630583 1.6116034 0.41413465 1.2717618 0.8523982 0.86268055 1.5269445
-1.0885947 -0.4435548 -2.330409 -0.7994402 -0.6191325 -1.2503066 -0.0134668145 0.50098413
-0.41789114 -0.36212742 0.14249316 -1.2421229 -1.3094722 1.5792685 1.8124715 -1.1970694

bbDiJetResNetBlock.conv.0.m f4 [1, 1, 1, 8]
00000000: 3d01 1d40 9a41 b13e 90a3 623f 2b84 2540
00000010: 964c 0f40 ee94 e33f 0b7f 0540 d107 8d3f
2.4532006 0.34620363 0.88530827 2.586192 2.2390494 1.7779825 2.085879 1.101801

bbDiJetResNetBlock.conv.0.s f4 [1, 1, 1, 8]
00000000: 12e0 5b40 3b7d 8c3f 2a33 cb3f ea58 7140
00000010: 7629 7740 d339 0740 171f 5340 cd03 1540
3.4355512 1.0975717 1.5874989 3.771052 3.8619056 2.1129043 3.2987726 2.328357

bbDiJetResNetBlock.conv.0.conv.bias f4 [1, 8, 1]
00000000: 9e80 1abe 28a5 2fc0 67f9 09bf e254 ef3f
00000010: 1af7 e33e c3d1 473f 817d 5abf 9a45 fb3f
-0.15088126 -2.7444553 -0.5389618 1.8697779 0.4452446 0.78054446 -0.85347754 1.9630616

bbDiJetResNetBlock.conv.0.conv.module.weight f4 [4, 8, 1]
00000000: 02ef 4abe bc99 e33f 2c9d 41bf 66ce e2bf
00000010: 9b8f 1bc0 0352 153f fdf9 93be ad5c 833f
00000020: ab60 933f 220a e2bf 994d 1640 6719 95be
00000030: a117 94bf a5ee bc3f f319 02c0 c38b e5bf
00000040: e080 2bbf c67e ef3e 587d 523f 365a 4cbf
00000050: e9a4 5abf 7628 943f bfb6 40c0 9a04 22bd
00000060: 695b 24bf b5bb dc3b ec7a 9dbe bf4c 1240
00000070: 11cf a0be a7cb 4e3f a608 943e 12e8 a9bf
-0.19817737 1.7781291 -0.7563045 -1.7719238 -2.43064 0.58328265 -0.28901663 1.0262657
1.1513876 -1.7659342 2.3484862 -0.29120943 -1.1569711 1.4760329 -2.0328338 -1.7933277
-0.6699352 0.46776408 0.8222251 -0.7982515 -0.8540788 1.1574848 -3.011154 -0.03955517
-0.6420198 0.0067362436 -0.30757844 2.2859342 -0.3140798 0.807795 0.28912848 -1.3273947

nonbDiJetResNetBlock.reinforce.0.conv.m f4 [1, 1, 3, 8]
00000000: 46f4 9140 af9f fc3f 893d 1b3f fffe df3f
00000010: 0d5f 973f a66e 3440 47f5 bc3f 86f1 ce3f
00000020: 6806 f03f 3b4d 6b40 bb28 9f3f 247b 2d3f
00000030: 7120 0940 3e7a f23f c079 8e3f 7c82 1d40
00000040: dd33 2640 e117 a33f bbd8 d63f 955f 0b3f
00000050: c06b d13f d4ee d3bd 5e5c b93f 16d6 9e3f
4.5610685 1.9736232 0.6064077 1.7499694 1.1825882 2.8192534 1.4762353 1.6167457
1.8751955 3.6765888 1.2434305 0.6776602 2.142605 1.8943555 1.1130905 2.4610891
2.5969155 1.2741662 1.6784891 0.5444272 1.6361008 -0.10348287 1.4481313 1.2409084

nonbDiJetResNetBlock.reinforce.0.conv.s f4 [1, 1, 3, 8]
00000000: 5b5a 7440 96e1 5140 5d04 b73f 7664 1c40
00000010: 90be 4940 fabd 7340 9618 0540 ac38 0d40
00000020: e760 1540 4a28 8940 ee41 0040 183e cd3f
00000030: 09cd 7c40 ceef 7240 5af0 0940 cc8f 1040
00000040: 6047 5440 ffa4 ea3f fc13 2740 7da2 a33f
00000050: 9792 0e40 547a 783e c22d d23f b3a6 0840
3.8180149 3.2793937 1.4298207 2.4436316 3.152256 3.8084702 2.0796256 2.206584
2.3340394 4.286168 2.004024 1.6034575 3.9500144 3.7958865 2.155295 2.2587767
3.3168564 1.8331603 2.6105947 1.2783962 2.2276971 0.24265414 1.6420214 2.1351745

nonbDiJetResNetBlock.reinforce.0.conv.conv.bias f4 [1, 8, 1]
00000000: ad99 163f c5b1 fd3f f8bd 6c40 4f74 b5bf
00000010: a90d fb3d 11b5 37bf 1cac bd3f 6556 8b3e
0.5882824 1.9819876 3.6990948 -1.417612 0.12258465 -0.7176066 1.4818149 0.2721435

nonbDiJetResNetBlock.reinforce.0.conv.conv.module.weight f4 [4, 8, 3]
00000000: d342 943e 4b2e 7abd 5ec8 8abf d487 e8be
00000010: 2b26 9a3f 853f d4bf e733 3ebf 4dc4 2d3e
00000020: b343 8dbf 9e6c ab3f 1c53 41be c7a7 5cbd
00000030: c2f2 7cbe de64 163f a5ad 8abf a5bb 81bf
00000040: eb7f 53bf 95a7 e63f 0caa 42bf 2cf5 a83f
00000050: 00e3 5340 fed3 e3be a7e8 9abf 617c 1bc0
00000060: b525 4bbf 47ea 8bbf 26ee 4a40 7fe5 c3be
00000070: af62 19bd e2e3 643e f0e3 38bf e14f 0bbf
00000080: 9a5e a5bf afa1 e6be 76ff c5bf a464 ed3f
00000090: 9a3d 58be a790 933f f949 253f 100b 753f
000000a0: e3f5 313f b1c8 c7bf 3236 b8be 27d0 033f
000000b0: 8d5e 84bf c10c b1be 7054 0040 656e 4840
000000c0: 7b8b 93bf 5722 72bf 2a04 7940 b649 bd3f
000000d0: 692c 693f 1129 2abf 0eb2 65be f25e 34bf
000000e0: c2bf 70bf fd31 e53e 12b3 383e 5b44 09c0
000000f0: 9440 9a3d 80d2 81be a18a 85c0 144a ed3e
00000100: ebc4 1b3d 7760 673f fa4a 17bf fb6b 0cbf
00000110: 8248 9abd 4abc c83e ce64 19bf ba8d 09bf
00000120: cf9a 59bf dde7 a0be 4b6e 09bf ad0b abbc
00000130: f88b ba3f 609b 143f ecc3 ad3c 6536 9a3d
00000140: 6316 6b3f c120 1c3f c0b2 99bf 0eb3 1440
00000150: 836e 3ebe 6f00 103e 8830 bc40 b339 ec3e
00000160: 6638 b5be 3c9c 2cbe 7e00 3ebf 8e41 ad3f
00000170: 08e5 f4be 13ef 33bf c7a1 d23f 9205 0ebf
0.28957233 -0.061079305 -1.0842397 -0.4541613 1.2042898 -1.6581885 -0.74297947 0.16969414
-1.1036285 1.3392522 -0.1887936 -0.053870942 -0.2470198 0.5874766 -1.0834242 -1.013539
-0.8261706 1.8019892 -0.7604072 1.319982 3.31073 -0.44497675 -1.210225 -2.4294665
-0.7935441 -1.0930871 3.1707854 -0.3826103 -0.037447628 0.22352555 -0.72222805 -0.5441876
-1.2919495 -0.4504523 -1.5468585 1.8546338 -0.21117249 1.1528519 0.64566 0.95720005
0.6951582 -1.5608121 -0.35978848 0.5148949 -1.0341355 -0.34580043 2.0051537 3.131738
-1.1526941 -0.9458365 3.8908792 1.478812 0.9108339 -0.6646891 -0.22431204 -0.70457375
-0.940426 0.447647 0.1803706 -2.144797 0.075318485 -0.2535591 -4.1731725 0.4634558
0.038029592 0.9038157 -0.5909878 -0.54852265 -0.07533361 0.39206153 -0.5991944 -0.5373188
-0.85001844 -0.31426898 -0.5368392 -0.02087959 1.4573965 0.58049583 0.021211587 0.07529906
0.91831034 0.6098748 -1.2007675 2.3234286 -0.18596844 0.14062665 5.880924 0.4613777
-0.3539459 -0.16856474 -0.742195 1.3535631 -0.47830987 -0.70286673 1.645562 -0.5547725

nonbDiJetResNetBlock.reinforce.1.conv.m f4 [1, 1, 3, 8]
00000000: 298f bb40 ccbc 6840 fbba 0d40 846b 3140
00000010: fca7 0a40 7460 8b40 66e2 5a40 26a3 0d40
00000020: 90cb 1940 a656 c840 b831 4440 1f54 1d3f
00000030: f77a 6340 291c 4040 6c64 5240 114a 8140
00000040: 4948 8c40 a9aa 9f40 9b90 d340 c6ac 5c40
00000050: 62ae 4640 5036 f53f 83a7 8c40 0473 9740
5.8612256 3.6365232 2.2145374 2.7721872 2.166503 4.355524 3.4200683 2.2130828
2.4030495 6.260577 3.0655346 0.61456484 3.5543802 3.0017188 3.2873793 4.0402913
4.383824 4.9895825 6.611402 3.4480453 3.1043935 1.91572 4.395448 4.73279

nonbDiJetResNetBlock.reinforce.1.conv.s f4 [1, 1, 3, 8]
00000000: eb87 bb40 c1a7 9540 3a8b 4e40 ded7 8540
00000010: 8dec ad40 afbd c540 9906 9540 8e42 5b40
00000020: 9804 5e40 7c8c bb40 9734 7e40 c7b2 fe3f
00000030: 10ab d440 7ae1 d140 f0bc a740 10c8 6b40
00000040: cecc ab40 ba1c e440 c92f be40 1007 f740
00000050: db08 8e40 3e79 5b40 d9a1 cc40 5849 b140
5.8603415 4.676728 3.2272477 4.182601 5.435126 6.1794047 4.6570554 3.4259372
3.4690304 5.860899 3.9719598 1.9898309 6.6458817 6.558774 5.2418137 3.6840858
5.3687506 7.1285067 5.943333 7.719612 4.438581 3.429275 6.394757 5.540203

nonbDiJetResNetBlock.reinforce.1.conv.conv.bias f4 [1, 8, 1]
00000000: d1ce acbf e909 6c3f 5e0f 843d 0bba c03e
00000010: a343 983f 1fcb 35c0 eef0 513f bf38 5dbf
-1.3500615 0.9220262 0.064482436 0.3764194 1.1895641 -2.8405225 0.82008255 -0.8641471

nonbDiJetResNetBlock.reinforce.1.conv.conv.module.weight f4 [4, 8, 3]
00000000: 5cc6 5dbf 5677 89bf 2ae9 a6be 86c6 31bd
00000010: 32be 21bf 1d00 0abd 2330 52be 7fc2 383f
00000020: a009 f53d 837c c9bf ba30 f6be 0b99 713f
00000030: 097b 0640 0689 9d3f 8853 06bf a8e7 86bf
00000040: f995 1c3f 10d1 8b3c 0284 72bd 0508 ccbe
00000050: fa29 d93f 7069 b53f b59c 8ebe 8274 273f
00000060: f56f 60bf 2247 80bd 65fd 923e 3c34 5c3e
00000070: 2886 943d ccc0 51bd 6477 9d3f 371d 60bd
00000080: 0f5a 2a40 7729 5dbe fff5 883f 0a47 aebe
00000090: f181 da3e 280f 20be ac16 d2bd 3a24 30bf
000000a0: b941 aabe 0bb4 013f 2505 64bf 392f 05bf
000000b0: ef5d 34be c309 7bbd da72 d7be 205d 813f
000000c0: cb1d 2fbe b392 c93d 0d53 22c0 61e2 02bf
000000d0: c198 e7bf 76b6 513e 4830 0d3f 9a15 03bf
000000e0: e5c1 76be 6b5c 82bf 6025 a03e 489f dfbe
000000f0: 0a40 203f 7640 423e a763 94be 8345 50be
00000100: 968d 0e3f 7f80 f3bf 129c 543f ef68 e9be
00000110: 7e61 61bf 650f b43e 7537 f33e 4da5 303f
00000120: 097b a3bf 1791 abbf 2a20 9c3f b6e7 b5bf
00000130: f5d4 14c0 aa15 ce3e db46 813f 7b19 17bf
00000140: 3ecd 46c0 d65a 93bf f6ba 573e 3f97 fbbf
00000150: 9956 f5bb bb30 f3be 7bff 1e3f 2f65 5f3f
00000160: 1001 f93e 1b8c cc3f 9dc8 0ebf e059 80be
00000170: f903 673f 6496 8dbf 27ca aebe e2d2 43c0
-0.866308 -1.0739543 -0.32599765 -0.043402217 -0.6318084 -0.033691514 -0.20526175 0.7217178
0.119647264 -1.5741123 -0.4808405 0.9437415 2.1012595 1.2307441 -0.5247121 -1.0539446
0.6116634 0.017067462 -0.059207924 -0.39849868 1.6965935 1.4172802 -0.27853933 0.6541215
-0.8767083 -0.062635675 0.2870895 0.21504301 0.07252151 -0.051209256 1.230206 -0.05471536
2.6617467 -0.21597849 1.0700072 -0.34038574 0.42677262 -0.15630782 -0.102582306 -0.6880528
-0.33253267 0.5066535 -0.8907035 -0.5202518 -0.17613958 -0.061288606 -0.42079812 1.0106544
-0.17101209 0.09842434 -2.536319 -0.51126677 -1.8093492 0.2047976 0.55151796 -0.51204836
-0.24097402 -1.0184454 0.31278515 -0.4367621 0.62597716 0.18969902 -0.2898228 -0.20339017
0.55684793 -1.9023589 0.83050644 -0.4558787 -0.88039386 0.35167995 0.47503248 0.6900223
-1.2771922 -1.3403653 1.2197316 -1.4211338 -2.3254979 0.40250903 1.0099748 -0.59023255
-3.106277 -1.1512096 0.21067414 -1.9655532 -0.00748713 -0.47498116 0.6210858 0.8726377
0.48633623 1.5980257 -0.5577486 -0.2506857 0.90240437 -1.106152 -0.34138605 -3.0597463

nonbDiJetResNetBlock.conv.0.m f4 [1, 1, 1, 8]
00000000: dff5 4d40 89ce 3440 81c7 6c3f 485e 9b3f
00000010: f8cf d43f e3d5 1640 84b7 a53f a07d 0240
3.2181318 2.825106 0.9249192 1.2138147 1.6625967 2.3568046 1.294663 2.0389175

nonbDiJetResNetBlock.conv.0.s f4 [1, 1, 1, 8]
00000000: 46ee 5b40 442d 7a40 867b e23f 86b5 0840
00000010: a6b4 6640 3111 7540 9d13 0840 e067 1140
3.436418 3.9090128 1.7693946 2.1360793 3.604776 3.8291743 2.126197 2.271965

nonbDiJetResNetBlock.conv.0.conv.bias f4 [1, 8, 1]
00000000: 5f26 6dbf 7077 953f 6899 063f 585d 1cc0
00000010: 16a4 73bf 6ed7 cdbd 390e 9f3f d3ab 03bf
-0.92636675 1.1677074 0.5257783 -2.4431973 -0.9517225 -0.100508556 1.2426215 -0.5143406

nonbDiJetResNetBlock.conv.0.conv.module.weight f4 [4, 8, 1]
00000000: 7cfa 563f 6381 a03f a84c c4be 9bec b03e
00000010: 8663 0bc0 44e8 c43e 3c0f f63f e665 c0be
00000020: 7678 533e 4924 4f3f bead 4b3f 9b7a c53e
00000030: 69b3 ba3e 4298 10c0 c627 afbf 66f9 0fbd
00000040: 78af 3abe fbc5 23bf 4a42 253f ad36 d13f
00000050: ef58 4e3f 76fd 7c3e a12a 32c0 5615 38be
00000060: f1c6 bd3f 9e41 e6be 74fd d7bd ddb5 563f
00000070: d500 01bd cbf5 d93f 7713 0b3f 1a48 b4bf
0.8397596 1.2539486 -0.38339734 0.34555516 -2.1779494 0.38458455 1.9223399 -0.37577742
0.20651421 0.8091474 0.79561985 0.38570103 0.36465004 -2.259293 -1.3684013 -0.035149954
-0.18230999 -0.6397397 0.64554274 1.6344811 0.8060445 0.24706063 -2.7838519 -0.17976889
1.4826337 -0.44971937 -0.10546389 0.8387125 -0.031494934 1.7028135 0.54326576 -1.4084504

lepWResNetBlock.reinforce.0.conv.m f4 [1, 1, 1, 8]
00000000: 0000 0000 0000 0000 0000 0000 0000 0000
00000010: 0000 0000 0000 0000 0000 0000 0000 0000
0.0 0.0 0.0 0.0 0.0 0.0 0.0 0.0

lepWResNetBlock.reinforce.0.conv.s f4 [1, 1, 1, 8]
00000000: 0000 803f 0000 803f 0000 803f 0000 803f
00000010: 0000 803f 0000 803f 0000 803f 0000 803f
1.0 1.0 1.0 1.0 1.0 1.0 1.0 1.0

lepWResNetBlock.reinforce.0.conv.conv.bias f4 [1, 8, 1]
00000000: 0000 0000 0000 0000 0000 0000 0000 0000
00000010: 0000 0000 0000 0000 0000 0000 0000 0000
0.0 0.0 0.0 0.0 0.0 0.0 0.0 0.0

lepWResNetBlock.reinforce.0.conv.conv.module.weight f4 [4, 8, 1]
00000000: 1842 903e 9ddd 8fbe 8f59 6ebe 3a47 853e
00000010: 7064 71be 93ba 663d e47a 33be 1e86 223e
00000020: f15c a6be 597b 523d 1e73 133e b987 a8be
00000030: eeda 5a3e 81df 343e 5745 873d be83 a53e
00000040: cc58 26bd 164a b03e c8c5 3bbd 6b51 ab3e
00000050: a825 b4be 15bf 09be b034 84be fe65 713e
00000060: b844 293e 3b56 573e dc0d 88be 5b69 9bbe
00000070: 05ff 70bd 2c6c a6be bc33 89be 0fe4 753e
0.28175426 -0.28098765 -0.23276351 0.26030904 -0.2357347 0.056330275 -0.17527348 0.15871474
-0.32492784 0.051387165 0.14399382 -0.32916048 0.21372578 0.17663385 0.066050224 0.32327074
-0.040612027 0.34431523 -0.045842916 0.33460554 -0.3518498 -0.13451798 -0.25821447 0.23574063
0.1653012 0.21028988 -0.26573074 -0.30353817 -0.058836956 -0.32504404 -0.26797283 0.24012779

lepWResNetBlock.reinforce.1.conv.m f4 [1, 1, 1, 8]
00000000: 0000 0000 0000 0000 0000 0000 0000 0000
00000010: 0000 0000 0000 0000 0000 0000 0000 0000
0.0 0.0 0.0 0.0 0.0 0.0 0.0 0.0

lepWResNetBlock.reinforce.1.conv.s f4 [1, 1, 1, 8]
00000000: 0000 803f 0000 803f 0000 803f 0000 803f
00000010: 0000 803f 0000 803f 0000 803f 0000 803f
1.0 1.0 1.0 1.0 1.0 1.0 1.0 1.0

lepWResNetBlock.reinforce.1.conv.conv.bias f4 [1, 8, 1]
00000000: 0000 0000 0000 0000 0000 0000 0000 0000
00000010: 0000 0000 0000 0000 0000 0000 0000 0000
0.0 0.0 0.0 0.0 0.0 0.0 0.0 0.0

lepWResNetBlock.reinforce.1.conv.conv.module.weight f4 [4, 8, 1]
00000000: 4b45 3abe 0a12 d93d 4f23 83bd 1a0d ec3d
00000010: 1211 b43e 893a ce3d 09c2 4abe 61f3 3dbd
00000020: f410 5e3d 41c9 253d 1eb4 c13d abb5 ee3c
00000030: 740b f73d eeb7 cb3d 530a 9b3e be9c 18be
00000040: d28a 773e 1e4c 8fbe 58de 563e 82e0 263e
00000050: 53de 493e c9d9 6cbd cbb0 4bbd 8dd7 a23e
00000060: 73d9 fabd 53ec 7d3b 3c32 2d3e bbb2 c8bd
00000070: d887 4c39 06f5 a93e 5f82 86be 6f72 6bbe
-0.18190496 0.10599144 -0.06403219 0.115259364 0.35169274 0.100697584 -0.19800581 -0.046374682
0.054215387 0.040475134 0.09458183 0.02913936 0.120627314 0.09947191 0.30281314 -0.14903542
0.2417405 -0.2798776 0.20983255 0.1629658 0.19713716 -0.057824884 -0.04972915 0.31805077
-0.122485064 0.0038745597 0.16913694 -0.09799715 0.00019505562 0.3319475 -0.2627134 -0.22992872

lepWResNetBlock.conv.0.m f4 [1, 1, 1, 8]
00000000: 0000 0000 0000 0000 0000 0000 0000 0000
00000010: 0000 0000 0000 0000 0000 0000 0000 0000
0.0 0.0 0.0 0.0 0.0 0.0 0.0 0.0

lepWResNetBlock.conv.0.s f4 [1, 1, 1, 8]
00000000: 0000 803f 0000 803f 0000 803f 0000 803f
00000010: 0000 803f 0000 803f 0000 803f 0000 803f
1.0 1.0 1.0 1.0 1.0 1.0 1.0 1.0

lepWResNetBlock.conv.0.conv.bias f4 [1, 8, 1]
00000000: 0000 0000 0000 0000 0000 0000 0000 0000
00000010: 0000 0000 0000 0000 0000 0000 0000 0000
0.0 0.0 0.0 0.0 0.0 0.0 0.0 0.0

lepWResNetBlock.conv.0.conv.module.weight f4 [4, 8, 1]
00000000: d226 81be 11a8 573b cf8c 36be 1176 ebbd
00000010: 6e63 82be ea8d 8cbe 7cae 90be cb6b f33d
00000020: f403 8cbe 472c 803e 05e0 a23e 112c 083e
00000030: c708 9bbe 0117 80be ae3d 25be a406 203e
00000040: fc76 b3be 6a63 423e 250c 883e 4e52 d8bc
00000050: 2bb3 5e3e c402 673e fc7d c43d 9938 933e
00000060: 9f99 413e 02de 183e 966e fabd 3dcd 723e
00000070: 5b5d 753c a46c 783e 73a7 893e cf7c da3d
-0.2522493 0.0032906572 -0.17827152 -0.11497129 -0.25466484 -0.27452022 -0.2825812 0.11885794
-0.27346766 0.2503378 0.31811538 0.1329806 -0.30280134 -0.2501755 -0.1613681 0.15627533
-0.35051715 0.18983236 0.26571766 -0.026406433 0.21748035 0.22559649 0.09594342 0.28754118
0.18906258 0.1492844 -0.12228124 0.23711105 0.014975871 0.24260193 0.26885566 0.106683366

bWhadResNetBlock.reinforce.0.conv.m f4 [1, 1, 1, 8]
00000000: d90e 4240 23a2 4740 1b23 6c40 c3ba 3240
00000010: 4579 6b40 aefe 9e3e 2a48 7240 ea95 3b40
3.0321562 3.119271 3.6896427 2.792649 3.6792767 0.3105368 3.7856545 2.931025

bWhadResNetBlock.reinforce.0.conv.s f4 [1, 1, 1, 8]
00000000: 6f04 ac40 5c68 6f40 d957 9740 aa1e 8a40
00000010: d5b9 7740 1173 953f bb79 9d40 5733 9a40
5.375541 3.7407446 4.7294736 4.316243 3.8707173 1.167574 4.9211097 4.818767

bWhadResNetBlock.reinforce.0.conv.conv.bias f4 [1, 8, 1]
00000000: 0000 0000 0000 0000 0000 0000 0000 0000
00000010: 0000 0000 0000 0000 0000 0000 0000 0000
0.0 0.0 0.0 0.0 0.0 0.0 0.0 0.0

bWhadResNetBlock.reinforce.0.conv.conv.module.weight f4 [4, 8, 1]
00000000: 08c3 04be 55c5 4d3e 6246 56bd e378 2ebe
00000010: 08a9 4cbd f539 ba3d fe9b 1cbe 6ad9 743e
00000020: 7525 7abe 0e03 8ebe 847c 9d3e 42d1 2d3d
00000030: cbd6 89bd 1128 4dbe cd33 73be a290 843e
00000040: 997f ad3e fc55 843e 7ade 153e 175c 15bc
00000050: dfc8 bcbd 4a2c 663e 9ab5 853d ab07 33be
00000060: 2aad 4abe ab84 883e 7eb6 f1bd 4dae a3be
00000070: 932e 603e e779 87be 0733 34be 54f6 dd3d
-0.12965024 0.20094807 -0.052313216 -0.17038302 -0.04996589 0.09093086 -0.15293881 0.23911062
-0.24428351 -0.27736706 0.3075906 0.042435892 -0.06730422 -0.20034815 -0.23750229 0.25891596
0.33886412 0.2584685 0.1463565 -0.009116194 -0.092180006 0.22477832 0.065287784 -0.17483394
-0.1979262 0.26663718 -0.11802386 -0.31968918 0.21892767 -0.26460192 -0.1759759 0.10837999

bWhadResNetBlock.reinforce.1.conv.m f4 [1, 1, 1, 8]
00000000: 82ea 3a40 c96c 9e40 01af a340 7474 7f40
00000010: 3215 8140 27ed 7f3f af3d bb40 d6b6 8440
2.9205632 4.9507794 5.115113 3.9914827 4.0338373 0.9997124 5.8512797 4.147319

bWhadResNetBlock.reinforce.1.conv.s f4 [1, 1, 1, 8]
00000000: cbb3 b540 a751 8540 54f9 d640 a1d6 c240
00000010: 74e8 8a40 20a8 3140 dae3 e240 8152 cb40
5.6781974 4.1662173 6.7179356 6.0887 4.3408756 2.7758865 7.090314 6.3538213

bWhadResNetBlock.reinforce.1.conv.conv.bias f4 [1, 8, 1]
00000000: b9d6 9540 f13f 4640 9658 8d3d 832f dfbf
00000010: 021f 263e 1db3 3ebe f516 333d 247e 0040
4.6824613 3.0976527 0.06901662 -1.7436374 0.16222766 -0.18623014 0.043723065 2.007699

bWhadResNetBlock.reinforce.1.conv.conv.module.weight f4 [4, 8, 1]
00000000: a0f3 6d3f 9fb0 1ac0 b50c e2bf 394c 4dbf
00000010: 569e 5fbf 2ffd 31be 9b67 66be be17 83bf
00000020: 1f3a fb3e 15dc 5dbd f5f8 bbbf 4882 7a3f
00000030: 3a96 75be 1857 013f 5795 043f 6716 efbe
00000040: 04d1 8bbf eb94 b1bf b7f6 74bf bd2f a33f
00000050: eee8 ae3f 22be 853f bbd9 7d3f b395 4fbf
00000060: 50d7 3fbf 28c3 b83e c18a 863f 5eb0 4cc0
00000070: c128 b2bf 1f83 64bf f5d2 0dc0 2855 7440
0.9294987 -2.41703 -1.7660128 -0.8019443 -0.87350976 -0.17381738 -0.2250046 -1.024162
0.4906778 -0.054164965 -1.4685351 0.97855043 -0.23983088 0.5052352 0.51790375 -0.4669678
-1.0923162 -1.3873571 -0.95688957 1.2748944 1.3664834 1.0448649 0.99160355 -0.810878
-0.74937916 0.36086392 1.0511094 -3.1982646 -1.3918687 -0.89262575 -2.2160008 3.8176975

bWhadResNetBlock.conv.0.m f4 [1, 1, 1, 8]
00000000: d90e 4240 23a2 4740 1b23 6c40 c3ba 3240
00000010: 4579 6b40 aefe 9e3e 2a48 7240 ea95 3b40
3.0321562 3.119271 3.6896427 2.792649 3.6792767 0.3105368 3.7856545 2.931025

bWhadResNetBlock.conv.0.s f4 [1, 1, 1, 8]
00000000: 6f04 ac40 5c68 6f40 d957 9740 aa1e 8a40
00000010: d5b9 7740 1173 953f bb79 9d40 5733 9a40
5.375541 3.7407446 4.7294736 4.316243 3.8707173 1.167574 4.9211097 4.818767

bWhadResNetBlock.conv.0.conv.bias f4 [1, 8, 1]
00000000: fdb6 c9bf b4b4 c33f 2ca7 543e b7a4 3d3e
00000010: c0ab 88be ae5a 72ba cf9c a23f 0582 893e
-1.5758969 1.5289521 0.20766896 0.18519865 -0.26693535 -0.000924508 1.2704104 0.2685701

bWhadResNetBlock.conv.0.conv.module.weight f4 [4, 8, 1]
00000000: 1a49 5e3e 63e5 bc3e 0a1e 5f3e 0407 2bc0
00000010: 34fd 93bd b935 143d 6c27 623f 70e1 863f
00000020: f746 b4bf 4dcf ccbf 364c 563e 3374 36c0
00000030: 1afd a1bf 92de cdbe d6a9 bbbf 9505 47bf
00000040: bea0 393f 0fe2 b33f 3cbd ae3e cb45 17c0
00000050: 3110 3ebf 60d7 013f 7b2d 953e e6a7 a33f
00000060: b7a5 9bbc b4e6 86bf fb7f 37be 6fdb 9f3f
00000070: 80f1 223f 2577 173f 1643 fe3e 44bd 29bf
0.21707574 0.36893758 0.21788803 -2.6723032 -0.07226029 0.036184046 0.88341403 1.0537548
-1.4084157 -1.6000763 0.2092751 -2.8508422 -1.2655365 -0.4020887 -1.4661205 -0.7774289
0.725109 1.4053363 0.3412875 -2.3636348 -0.74243456 0.5071926 0.2913626 1.2785614
-0.018999917 -1.0539155 -0.17919914 1.2488841 0.6364975 0.59166175 0.49660558 -0.6630442

bWlepResNetBlock.reinforce.0.conv.m f4 [1, 1, 1, 8]
00000000: bad5 c73f c3b9 843f 1a7d e33f 9df3 053f
00000010: 860e b73e 2d83 e43e 3073 d63e 50fd 043f
1.5612099 1.036919 1.7772553 0.5232485 0.35753268 0.4463133 0.41884756 0.51949024

bWlepResNetBlock.reinforce.0.conv.s f4 [1, 1, 1, 8]
00000000: ff8a b63f 538d 973f 98b7 fa3f 52d3 7c3f
00000010: cdbd 843f 8703 ec3f b281 a53f 9cee cd3f
1.4261168 1.1840004 1.9587278 0.9875995 1.0370423 1.8438576 1.2930205 1.6088443

bWlepResNetBlock.reinforce.0.conv.conv.bias f4 [1, 8, 1]
00000000: 0000 0000 0000 0000 0000 0000 0000 0000
00000010: 0000 0000 0000 0000 0000 0000 0000 0000
0.0 0.0 0.0 0.0 0.0 0.0 0.0 0.0

bWlepResNetBlock.reinforce.0.conv.conv.module.weight f4 [4, 8, 1]
00000000: 011f 2cbd a38c 743e ea51 a0be d46f 513e
00000010: 6f23 9f3e 3a0f 13be 59c7 9e3e 4ffe 233e
00000020: d65e 98bd e2a7 b3be 353d c63d 1966 1ebe
00000030: 912c 553e ed99 ad3d 9e95 813e 9980 fe3d
00000040: 411b 7bbe 5c91 a6be f325 51bc b82a 9bbe
00000050: b8e0 97be 571d 8bbe 8032 86be 43a7 5dbe
00000060: 0643 b4bc 6192 ee3d 03b0 a83e 0e85 953e
00000070: 4a54 a73e 9786 c23d fd65 853d 88ef a0bd
-0.042021755 0.23881774 -0.31312495 0.20452815 0.3108172 -0.14361277 0.31011465 0.1601498
-0.074399635 -0.35089022 0.09679643 -0.15468635 0.20817782 0.08476625 0.2530946 0.12426872
-0.24522115 -0.32532775 -0.012765395 -0.3030603 -0.29663634 -0.27170822 -0.26210403 -0.21645837
-0.022004616 0.11649013 0.32946786 0.29203075 0.32681495 0.09498327 0.06513593 -0.07858187

bWlepResNetBlock.reinforce.1.conv.m f4 [1, 1, 1, 8]
00000000: 79bc 8240 6549 2340 556e 2c40 7bd4 d33f
00000010: 3a68 4740 4fbb e13f c8fe 0040 c946 3e40
4.085507 2.5513546 2.6942341 1.6549219 3.1157365 1.7635287 2.0155506 2.9730704

bWlepResNetBlock.reinforce.1.conv.s f4 [1, 1, 1, 8]
00000000: c5c3 c940 1e95 2240 d5ac 6f40 9523 3c40
00000010: 8ae8 4f40 2c83 4d40 ae2a 2c40 fded 5140
6.3051476 2.5403514 3.7449238 2.9396718 3.248568 3.211131 2.690105 3.2801507

bWlepResNetBlock.reinforce.1.conv.conv.bias f4 [1, 8, 1]
00000000: 9677 0f40 4289 0dbf ce9e 39c0 8bb9 3d3f
00000010: 664a 03bf b6de 46bf 4e5b 8d3c 1770 063f
2.241674 -0.55287564 -2.9003177 0.7411124 -0.512854 -0.7768358 0.017255452 0.52514786

bWlepResNetBlock.reinforce.1.conv.conv.module.weight f4 [4, 8, 1]
00000000: 8606 81bd 5771 243f 81fa 0cbe d530 9a3f
00000010: d6fe b63f c16c a43e 246a 2dbf 5f93 90bf
00000020: f0e1 323f 92f2 05be b166 fbbe 7cc5 833d
00000030: 9667 40bf df28 e63d 385f 813e a37a 0d3f
00000040: 4ef5 a2bf 04f7 d43d c332 47bf 383a b7bf
00000050: 8d87 f03e e399 1fbf 98dc a6be 740c 9abf
00000060: 43ad f6be 3e57 f03e 01a7 573f e793 aebe
00000070: 1f1b e8bd a61c bfbf 0ddf 6fbf 3589 49be
-0.06300072 0.6423544 -0.13767435 1.2046152 1.429652 0.32114223 -0.6774008 -1.1294974
0.69876003 -0.13080814 -0.49101785 0.064341515 -0.7515806 0.11238264 0.2526796 0.55265254
-1.2731111 0.10398677 -0.7781183 -1.4314642 0.46978417 -0.6234419 -0.32590175 -1.203505
-0.48179063 0.4694156 0.842392 -0.34097216 -0.11333298 -1.4930618 -0.93699723 -0.19681247

bWlepResNetBlock.conv.0.m f4 [1, 1, 1, 8]
00000000: bad5 c73f c3b9 843f 1a7d e33f 9df3 053f
00000010: 860e b73e 2d83 e43e 3073 d63e 50fd 043f
1.5612099 1.036919 1.7772553 0.5232485 0.35753268 0.4463133 0.41884756 0.51949024

bWlepResNetBlock.conv.0.s f4 [1, 1, 1, 8]
00000000: ff8a b63f 538d 973f 98b7 fa3f 52d3 7c3f
00000010: cdbd 843f 8703 ec3f b281 a53f 9cee cd3f
1.4261168 1.1840004 1.9587278 0.9875995 1.0370423 1.8438576 1.2930205 1.6088443

bWlepResNetBlock.conv.0.conv.bias f4 [1, 8, 1]
00000000: b512 e83f a992 773f ce52 61bf 563a 4bbf
00000010: 0bc3 c43f 8a24 9b3f bf4d 233f b7bf 1c40
1.8130709 0.9670816 -0.88016975 -0.7938589 1.5372022 1.2120526 0.63790506 2.4492013

bWlepResNetBlock.conv.0.conv.module.weight f4 [4, 8, 1]
00000000: 8ee3 2dbe e429 44bf 09ec 85bf c3c5 c2bf
00000010: ba72 983d 2c47 2740 59b5 0840 b929 0f40
00000020: fb04 c33f a814 633f 263f e03f 2ece b83e
00000030: a356 c03f be37 f53e a0fc fbbe 0c36 1abf
00000040: fff8 e03e d6f5 f03f b29b 4740 0e02 83bf
00000050: ae93 e73e 4c6c da3e a96a 273e 4cad 0c3f
00000060: b240 6bbf dc7f 743f efed 2740 b20c 6d3f
00000070: 151e 273f c96d 023e 437a 553e 59bf 27be
-0.16981336 -0.7662642 -1.0462657 -1.5216602 0.07443757 2.613719 2.1360686 2.2369215
1.5235895 0.88703394 1.7519271 0.36094803 1.502644 0.4789409 -0.49216175 -0.6023872
0.4393997 1.8825023 3.118878 -1.0235002 0.45229858 0.4266075 0.16349281 0.5495193
-0.9189559 0.955076 2.6238973 0.92597497 0.65280277 0.12737192 0.2084742 -0.16381587

attention_tt.q_GBN.gamma f4 [8]
00000000: 27f0 a0bf 5287 5ebf 7fc6 943f 994b 7ec0
00000010: b78f 26c0 56c6 07c1 e9fa 80c0 41c9 f1c0
-1.2573289 -0.8692523 1.1623076 -3.973364 -2.6025217 -8.485922 -4.0306287 -7.555817

attention_tt.q_GBN.bias f4 [8]
00000000: 0993 1dc0 cb8b b23e 45d6 083f 03fd 6a3f
00000010: 1cb3 0bc1 d9eb 97c0 d1de 8f3f 73d2 94c0
-2.4620993 0.3487228 0.5345195 0.91792315 -8.731228 -4.74754 1.1239873 -4.6506896

attention_tt.q_GBN.m f4 [1, 1, 1, 8]
00000000: 297a 1641 a58a c440 1d8a 1840 e13f 2c40
00000010: 203f d13f a3d7 633f 19bf 1e40 d8a2 d140
9.404824 6.1419244 2.3834298 2.6913989 1.6347389 0.8900091 2.4804137 6.5511284

attention_tt.q_GBN.s f4 [1, 1, 1, 8]
00000000: fa93 8440 9322 4940 9cd3 8740 9020 a640
00000010: a3d1 2c40 e501 d13f 0bb8 4b40 2f06 ee40
4.1430635 3.1427352 4.244581 5.191475 2.7002952 1.6328703 3.183108 7.438255

attention_tt.v_GBN.gamma f4 [8]
00000000: 5c03 8ebf 5447 9f3f cd48 45be 8f22 4e3f
00000010: 4190 943f de14 d63f e950 343f 3163 8f3f
-1.1094775 1.2443643 -0.19266053 0.8052148 1.1606523 1.6725118 0.7043596 1.1202146

attention_tt.v_GBN.bias f4 [8]
00000000: ccae 08bf c588 3940 e65d f83f 4750 01c0
00000010: 15a9 62be 6c0c c1bc 4d0c 813f 02a9 953f
-0.5339172 2.8989727 1.9403656 -2.0205247 -0.22134812 -0.023565494 1.0081879 1.1692202

attention_tt.v_GBN.m f4 [1, 1, 1, 8]
00000000: 6078 ee40 1037 5040 4ffe 263f c952 6040
00000010: df9a 6b40 e9b4 5040 24c8 1e40 ba6d 7640
7.452194 3.2533607 0.65231794 3.5050528 3.6813276 3.2610419 2.4809656 3.8504472

attention_tt.v_GBN.s f4 [1, 1, 1, 8]
00000000: 862b c940 2185 6f40 9093 db3f ec69 ab40
00000010: 4010 0a41 7684 f040 8cae 8140 6bed 8540
6.286563 3.7425005 1.7154408 5.35668 8.628967 7.5161695 4.052557 4.1852317
