analysis/weights/model_svb__kfolds_3__offset_0__seed_kfold-FvT-random-0__3f3e6384-a486-4c5f-b9d9-28e2478f900f.pkl (torch, 210528 bytes, 210 tensors)

inputEmbed.ancillaryEmbed.m f4 [1, 1, 1, 4]
286.23383 0.33538914 0.6816794 2022.4136
00000000: ee1d 8f43 20b8 ab3e 8b82 2e3f 3ccd fc44

inputEmbed.ancillaryEmbed.s f4 [1, 1, 1, 4]
75.525536 0.43705457 0.8407356 0.4926079
00000000: 130d 9742 9ec5 df3e 733a 573f 1a37 fc3e

inputEmbed.ancillaryEmbed.conv.module.weight f4 [4, 4, 1]
0.10908189 0.3018361 0.036464043 -0.032266296 3.200167 0.1954487 -0.2815061 0.015474163
1.229152 1.0472484 1.0407009 0.005816708 0.4546363 0.47215196 -0.0074681463 0.114946045
00000000: 5366 df3d 438a 9a3e 525b 153d aa29 04bd
00000010: 89cf 4c40 b423 483e 9121 90be 5887 7d3c
00000020: da54 9d3f 3c0c 863f b035 853f 159a be3b
00000030: 17c6 e83e e7bd f13e 5ab7 f4bb d568 eb3d

inputEmbed.bJetEmbed.m f4 [1, 1, 1, 5]
4.0755463 -0.0074152024 0.70193094 2.2278686 0.8439431
00000000: e06a 8240 3afb f2bb bfb1 333f 6695 0e40
00000010: a80c 583f

inputEmbed.bJetEmbed.s f4 [1, 1, 1, 5]
0.41965666 1.0329089 0.4607683 0.350166 0.22914356
00000000: 3ddd d63e 5c36 843f d3e9 eb3e f548 b33e
00000010: 9ca4 6a3e

inputEmbed.bJetEmbed.conv.bias f4 [1, 8, 1]
0.48837593 0.10302473 -0.56036675 0.15553074 1.6945934 -0.7511709 -0.09570471 0.6558556
00000000: 690c fa3e a1fe d23d 3274 0fbf 7343 1f3e
00000010: 70e8 d83f bc4c 40bf d500 c4bd 27e6 273f

inputEmbed.bJetEmbed.conv.module.weight f4 [4, 5, 1]
-4.279202 -0.14073174 -0.26674682 0.44998813 -1.003849 0.79778105 -0.09625287 -3.5147839
-0.3431563 1.6617963 0.028127944 0.36230296 1.6631837 2.2746084 -4.0181856 2.003962
0.06542107 1.8228443 -0.9889637 2.56657
00000000: 39ef 88c0 fb1b 10be 0a93 88be d864 e63e
00000010: 207e 80bf 613b 4c3f 3a20 c5bd 38f2 60c0
00000020: 2fb2 afbe beb5 d43f 936c e63c c67f b93e
00000030: 34e3 d43f 2f93 1140 fa94 80c0 ea40 0040
00000040: 7bfb 853d f652 e93f ba2c 7dbf af42 2440

inputEmbed.bJetConv.m f4 [1, 1, 1, 8]
1.0753686 1.2578051 1.1048954 0.8301506 1.733906 1.5886205 2.3702261 1.5267637
00000000: aea5 893f c2ff a03f 366d 8d3f c084 543f
00000010: a2f0 dd3f eb57 cb3f c9b1 1740 fe6c c33f

inputEmbed.bJetConv.s f4 [1, 1, 1, 8]
1.6161879 2.1779232 2.0995047 1.3388889 2.377519 2.565071 2.4113388 2.2857556
00000000: 3fdf ce3f 1863 0b40 495e 0640 b660 ab3f
00000010: 4529 1840 202a 2440 6053 1a40 d249 1240

inputEmbed.bJetConv.conv.bias f4 [1, 8, 1]
0.4446743 -0.41150203 -1.7488556 -0.031066166 -1.2786058 -0.4043713 0.6778058 -0.21276636
00000000: 5aac e33e 65b0 d2be 80da dfbf 797e febc
00000010: 5ba9 a3bf c109 cfbe ae84 2d3f 6ddf 59be

inputEmbed.bJetConv.conv.module.weight f4 [4, 8, 1]
-3.9705744 1.7977087 1.4117618 -0.77552694 -1.2449346 -0.6259571 -0.14101166 -1.3030378
0.19009216 2.1453102 -0.13139185 1.5402483 1.4818777 0.32045463 0.78902507 -2.002239
-0.2273325 2.0653396 0.51272786 -0.74325776 -2.1550972 0.4941658 0.024601541 2.2289798
-1.3991612 0.037389494 -2.1547287 -0.11617886 -3.2064524 -2.385857 1.4077725 -0.70499015
00000000: e41d 7ec0 521b e63f 9cb4 b43f ef88 46bf
00000010: 045a 9fbf b93e 20bf 5c65 10be f1c9 a6bf
00000020: 85a7 423e c34c 0940 968b 06be db26 c53f
00000030: 2bae bd3f a112 a43e 8cfd 493f af24 00c0
00000040: dac9 68be 862e 0440 2242 033f 2446 3ebf
00000050: 1ded 09c0 4d03 fd3e 2c89 c93c 9ba7 0e40
00000060: b717 b3bf ba25 193d 13e7 09c0 2fef edbd
00000070: 8436 4dc0 e2b1 18c0 e431 b43f 3c7a 34bf

inputEmbed.nonbJetEmbed.m f4 [1, 1, 1, 4]
1.616142 -0.00797831 0.78548414 1.1574956
00000000: bedd ce3f 75b7 02bc 7d15 493f d128 943f

inputEmbed.nonbJetEmbed.s f4 [1, 1, 1, 4]
0.08857138 1.1813331 0.65811366 0.12108758
00000000: e964 b53d ec35 973f 237a 283f c4fc f73d

inputEmbed.nonbJetEmbed.conv.bias f4 [1, 8, 1]
0.9048518 0.14939706 0.78982097 1.0889986 1.3036696 -0.17448896 -0.06730538 -1.1379359
00000000: 5ea4 673f 8bfb 183e b531 4a3f 4e64 8b3f
00000010: a5de a63f 3cad 32be 67d7 89bd e2a7 91bf

inputEmbed.nonbJetEmbed.conv.module.weight f4 [4, 4, 1]
-2.0692112 -0.0032482354 0.55452913 3.0452273 1.6392089 0.22855917 -0.6241377 -0.45445314
-1.931889 0.0006873713 1.1107925 0.35324726 -2.210639 -0.066022925 -2.238554 -0.65749973
00000000: f56d 04c0 59e0 54bb 9ff5 0d3f 01e5 4240
00000010: 99d1 d13f 6a0b 6a3e 7dc7 1fbf 15ae e8be
00000020: 2448 f7bf b530 343a 732e 8e3f d3dc b43e
00000030: 1c7b 0dc0 0737 87bd 7844 0fc0 e751 28bf

inputEmbed.nonbJetConv.m f4 [1, 1, 1, 8]
1.3019521 1.5240232 1.6566204 1.5041348 1.286581 1.3520561 0.9126251 0.33654803
00000000: 5ea6 a63f 3113 c33f 230c d43f 7d87 c03f
00000010: b0ae a43f 2d10 ad3f cca1 693f 0650 ac3e

inputEmbed.nonbJetConv.s f4 [1, 1, 1, 8]
1.4584697 2.7506278 2.1447902 1.8171 1.7157233 1.9764752 1.484895 1.1600304
00000000: 23af ba3f 490a 3040 3e44 0940 bc96 e83f
00000010: d29c db3f 24fd fc3f 0a11 be3f e07b 943f

inputEmbed.nonbJetConv.conv.bias f4 [1, 8, 1]
-0.11085814 -0.6760336 -0.5259659 1.8997136 0.02844679 -0.4271161 0.51649827 -0.8046611
00000000: 9809 e3bd 8a10 2dbf b4a5 06bf d129 f33f
00000010: 3e09 e93c f6ae dabe 3b39 043f 45fe 4dbf

inputEmbed.nonbJetConv.conv.module.weight f4 [4, 8, 1]
0.008584999 -0.21161042 -1.7180858 -0.1924963 -1.1943039 1.8468488 2.3597364 0.8078644
1.5910548 -1.7501528 0.80908334 1.5440557 -1.048203 1.152455 -1.0730041 -1.1498076
0.11709778 1.3166596 -0.45576903 1.6463866 -0.5655773 -1.7991431 -0.3226276 -2.1433783
-1.8865813 -0.82473946 -1.9978881 0.4630901 0.6429215 1.0290306 2.0230634 -0.9730703
00000000: 18a8 0c3c 67b0 58be 3cea dbbf c01d 45be
00000010: f3de 98bf 8b65 ec3f ec05 1740 34d0 4e3f
00000020: afa7 cb3f 0205 e0bf 1620 4f3f 9ea3 c53f
00000030: 842b 86bf a583 933f 3358 89bf e52c 93bf
00000040: f6d0 ef3d 4d88 a83f 8f5a e9be ccbc d23f
00000050: adc9 10bf 524a e6bf 722f a5be 1c2d 09c0
00000060: 7f7b f1bf 2022 53bf ccba ffbf 251a ed3e
00000070: 8196 243f 46b7 833f df79 0140 231b 79bf

inputEmbed.lepEmbed.m f4 [1, 1, 1, 6]
60.48645 -0.0077296775 7.585746e-05 0.061168514 0.4213712 0.5786287
00000000: 20f2 7142 3c49 fdbb aa15 9f38 d68b 7a3d
00000010: f7bd d73e 0321 143f

inputEmbed.lepEmbed.s f4 [1, 1, 1, 6]
29.744583 1.0845863 1.8180542 0.052198794 0.49377868 0.49377868
00000000: e8f4 ed41 b9d3 8a3f 00b6 e83f 67ce 553d
00000010: 8fd0 fc3e 8fd0 fc3e

inputEmbed.lepEmbed.conv.bias f4 [1, 8, 1]
-1.442966 -0.498881 -0.050019316 -2.8569329 1.0452943 1.7641732 -0.8841965 -1.7053368
00000000: 1cb3 b8bf 556d ffbe 0ee1 4cbd fdd7 36c0
00000010: 34cc 853f 6dd0 e13f b45a 62bf 7a48 dabf

inputEmbed.lepEmbed.conv.module.weight f4 [4, 6, 1]
-5.311456 -0.57593143 -0.019354226 0.059346404 -0.51052076 -0.2410107 3.4636943 -1.2400188
-0.3491729 4.6140118e-05 -0.19270088 -0.093963906 -1.017604 0.68719846 -0.6995644 -1.039428
1.3011522 -1.5271474 -0.37303698 -3.1418896 0.1211722 -0.1043634 -0.053633887 -0.036301307
00000000: 73f7 a9c0 3e70 13bf c18c 9ebc 3715 733d
00000010: 7db1 02bf 82cb 76be 2bad 5d40 f0b8 9ebf
00000020: cac6 b2be 9386 4138 6153 45be 2670 c0bd
00000030: d940 82bf 3dec 2f3f a716 33bf fa0b 85bf
00000040: 288c a63f 9179 c3bf b4fe bebe b814 49c0
00000050: 2129 f83d 7abc d5bd 35af 5bbd aeb0 14bd

inputEmbed.lepConv.m f4 [1, 1, 1, 8]
1.2967293 1.0655092 1.8838822 0.21438678 2.4923165 2.3422966 1.516033 0.52228034
00000000: 3afb a53f 9b62 883f 0d23 f13f 3588 5b3e
00000010: 1d82 1f40 30e8 1540 5f0d c23f 2ab4 053f

inputEmbed.lepConv.s f4 [1, 1, 1, 8]
1.7872804 2.5481393 2.566615 0.84143615 4.4243097 2.16585 1.7922107 1.2649444
00000000: 9bc5 e43f b714 2340 6c43 2440 5c68 573f
00000010: f293 8d40 499d 0a40 2967 e53f b3e9 a13f

inputEmbed.lepConv.conv.bias f4 [1, 8, 1]
-1.7159021 0.068883285 -0.74872684 -0.4439725 -1.3966787 -1.7109821 -0.63248116 -0.75899243
00000000: aea2 dbbf ae12 8d3d 90ac 3fbf 5d50 e3be
00000010: 5ec6 b2bf 7601 dbbf 49ea 21bf 544d 42bf

inputEmbed.lepConv.conv.module.weight f4 [4, 8, 1]
0.36607957 0.54896474 -0.3225549 0.1991367 -0.46255043 1.405352 -0.5591559 -0.4178867
1.4408264 -0.5316835 0.9866249 1.0198228 -2.186568 0.9236326 0.029544372 0.6725709
0.9372832 -0.8592091 0.5207199 -1.588165 0.08099255 0.40503776 0.20597441 -1.7436252
0.83834696 -1.0570039 -0.5461729 -1.1275978 -1.036572 -0.35500088 0.23464373 -1.1439072
00000000: c86e bb3e f488 0c3f ea25 a5be 7eea 4b3e
00000010: 69d3 ecbe 93e2 b33f d724 0fbf 3ff5 d5be
00000020: 006d b83f 691c 08bf 7393 7c3f 8e89 823f
00000030: bbf0 0bc0 3073 6c3f 0a07 f23c 9b2d 2c3f
00000040: cbf1 6f3f 21f5 5bbf e64d 053f fe48 cbbf
00000050: 6cdf a53d 1c61 cf3e f5ea 523e 1c2f dfbf
00000060: e89d 563f e74b 87bf fdd1 0bbf 2055 90bf
00000070: 64ae 84bf adc2 b5be 7246 703e 8d6b 92bf

inputEmbed.nuEmbed.m f4 [1, 1, 1, 2]
65.632805 0.014733872
00000000: ff43 8342 5766 713c

inputEmbed.nuEmbed.s f4 [1, 1, 1, 2]
37.87515 1.7967404
00000000: 2780 1742 97fb e53f

inputEmbed.nuEmbed.conv.bias f4 [1, 8, 1]
0.21948197 1.2153203 0.98926383 0.58272743 -0.8661907 -0.32020032 -2.2018332 1.3467277
00000000: e2bf 603e 9e8f 9b3f 6540 7d3f a02d 153f
00000010: acbe 5dbf 4cf1 a3be d6ea 0cc0 9361 ac3f

inputEmbed.nuEmbed.conv.module.weight f4 [4, 2, 1]
-1.702754 0.458173 -1.426028 -0.031730417 -1.1294487 -0.06148947 0.8814162 0.6135299
00000000: d8f3 d9bf a795 ea3e 1688 b6bf c1f7 01bd
00000010: c691 90bf 62dc 7bbd 7ea4 613f 4c10 1d3f

inputEmbed.nuConv.m f4 [1, 1, 1, 8]
0.65220183 1.2125688 0.98082423 0.6674935 0.1722025 0.19895759 -0.12969986 1.1279216
00000000: b3f6 263f 7435 9b3f 4c17 7b3f dbe0 2a3f
00000010: da55 303e 8abb 4b3e 0ad0 04be bc5f 903f

inputEmbed.nuConv.s f4 [1, 1, 1, 8]
0.9407467 1.0455362 0.867382 0.96757495 0.9274912 0.8780909 0.3238472 1.0619471
00000000: c7d4 703f 21d4 853f bf0c 5e3f feb2 773f
00000010: 1070 6d3f 91ca 603f 4dcf a53e e2ed 873f

inputEmbed.nuConv.conv.bias f4 [1, 8, 1]
-1.3783479 -0.4630936 1.409595 -2.4486246 -1.5016608 -3.0170147 -0.27282783 0.45376277
00000000: b46d b0bf 9b1a edbe 9c6d b43f 44b6 1cc0
00000010: 6c36 c0bf c516 41c0 17b0 8bbe 9853 e83e

inputEmbed.nuConv.conv.module.weight f4 [4, 8, 1]
-0.05429459 0.16408546 -0.06717164 -0.074844144 -0.0060518477 -0.052355364 0.09845936 -0.11886036
-0.7570855 -0.17031875 -0.2334752 -0.7244087 -1.1024287 -1.2449608 -1.3647093 -0.6568504
0.63230735 0.6358141 1.2223136 -0.3556879 -0.4080549 -0.5697693 -0.4189054 0.09475913
-0.27548945 -0.52125615 -0.65814704 0.0812108 -0.18979664 0.35904768 -0.4941065 -0.38962242
00000000: 0164 5ebd 0506 283e 4991 89bd e347 99bd
00000010: 944e c6bb 9472 56bd 10a5 c93d 0f6d f3bd
00000020: 5bd0 41bf 0a68 2ebe 1f14 6fbe d972 39bf
00000030: 621c 8dbf e05a 9fbf cbae aebf 5927 28bf
00000040: e5de 213f b6c4 223f c674 9c3f b91c b6be
00000050: 92ec d0be 67dc 11bf c57a d6be 1311 c23d
00000060: f40c 8dbe 0b71 05bf 537c 28bf d951 a63d
00000070: 0d5a 42be 19d5 b73e 87fb fcbe 977c c7be

inputEmbed.bWhadEmbed.m f4 [1, 1, 1, 4]
86.98857 -0.014964055 -0.0039595948 233.02913
00000000: 26fa ad42 cc2b 75bc 7dbf 81bb 7507 6943

inputEmbed.bWhadEmbed.s f4 [1, 1, 1, 4]
46.70089 1.7107712 1.8117113 113.514145
00000000: b6cd 3a42 8dfa da3f 28e6 e73f 3e07 e342

inputEmbed.bWhadEmbed.conv.bias f4 [1, 8, 1]
-1.1488038 -0.049277086 0.20551385 2.442565 1.4717865 -0.014057028 3.3467908 -0.43442205
00000000: 010c 93bf c5d6 49bd 3972 523e fc52 1c40
00000010: 8063 bc3f 734f 66bc d231 5640 916c debe

inputEmbed.bWhadEmbed.conv.module.weight f4 [4, 4, 1]
1.875002 -0.11316663 -0.04235843 -1.8154927 -3.141102 -0.08102644 -0.49517727 -0.64287716
2.2674985 0.013222401 -0.37658098 0.61912626 -0.41222253 0.108700246 0.018848721 5.377111
00000000: 1100 f03f e8c3 e7bd 0880 2dbd 1162 e8bf
00000010: d107 49c0 31f1 a5bd e087 fdbe 9993 24bf
00000020: b21e 1140 c5a2 583c 39cf c0be 0f7f 1e3f
00000030: d50e d3be 3c9e de3d a268 9a3c 4b11 ac40

inputEmbed.bWhadConv.m f4 [1, 1, 1, 8]
0.46446764 1.1600688 0.89712137 2.9982455 1.4877548 1.1905223 3.3784351 1.7500958
00000000: b4ce ed3e 227d 943f bfa9 653f 41e3 3f40
00000010: c06e be3f 0963 983f 4838 5840 2403 e03f

inputEmbed.bWhadConv.s f4 [1, 1, 1, 8]
1.2097795 1.6174864 1.7261307 5.0008297 2.169057 2.1767664 2.1526687 2.0261016
00000000: 0eda 9a3f cb09 cf3f daf1 dc3f cc06 a040
00000010: d4d1 0a40 2450 0b40 53c5 0940 a6ab 0140

inputEmbed.bWhadConv.conv.bias f4 [1, 8, 1]
4.0174074 1.0071551 -1.1766832 1.3865464 0.20404905 -0.866435 -0.15125513 2.9108033
00000000: 9a8e 8040 75ea 803f 8e9d 96bf 5a7a b13f
00000010: 3cf2 503e afce 5dbf a0e2 1abe 9a4a 3a40

inputEmbed.bWhadConv.conv.module.weight f4 [4, 8, 1]
0.41878414 0.46291515 0.7301412 0.9433993 0.4837234 1.3652956 -0.45109078 -0.5296305
-0.8576369 0.36124653 -0.5311361 0.47669715 -0.060789958 -0.6916647 0.52118164 0.6297101
-1.3232106 0.13121162 -0.23978223 0.629402 0.28562072 -0.5637934 0.47138417 -3.801513
-0.5567567 -0.41436648 1.4121978 0.72364223 -0.41876185 1.2563391 -1.1291496 -2.2249298
00000000: e06a d63e 3703 ed3e 89ea 3a3f 9e82 713f
00000010: 98aa f73e 02c2 ae3f 5ff5 e6be dd95 07bf
00000020: 188e 5bbf 4ef5 b83e 89f8 07bf a611 f43e
00000030: e4fe 78bd f010 31bf 296c 053f ae34 213f
00000040: f75e a9bf 575c 063e 7989 75be 7d20 213f
00000050: e13c 923e c454 10bf 4459 f13e fd4b 73c0
00000060: 9b87 0ebf d827 d4be e6c2 b43f 9e40 393f
00000070: f467 d6be b8cf a03f f987 90bf 4065 0ec0

inputEmbed.bWlepEmbed.m f4 [1, 1, 1, 4]
72.95581 -0.011392626 0.0001443053 113.51005
00000000: 60e9 9142 23a8 3abc a950 1739 2505 e342

inputEmbed.bWlepEmbed.s f4 [1, 1, 1, 4]
40.236824 1.5460743 1.8175906 53.39704
00000000: 82f2 2042 c3e5 c53f cfa6 e83f 9296 5542

inputEmbed.bWlepEmbed.conv.bias f4 [1, 8, 1]
-0.66398823 -1.2595358 3.6282337 -1.3572481 0.29753894 4.2405176 -0.35758236 3.9680004
00000000: 22fb 29bf 7838 a1bf fb34 6840 4eba adbf
00000010: 0657 983e 52b2 8740 0915 b7be b8f3 7d40

inputEmbed.bWlepEmbed.conv.module.weight f4 [4, 4, 1]
3.001026 0.24729468 -0.078336455 0.5296695 -0.18895777 0.015477405 0.0432013 3.3365877
-0.14301124 -0.016405508 0.03567945 2.7416534 -0.64807796 -0.10417427 0.094880305 2.5675492
00000000: cf10 4040 d13a 7d3e dd6e a0bd 6c98 073f
00000010: 257e 41be f194 7d3c d9f3 303d a78a 5540
00000020: 8a71 12be d864 86bc 9d24 123d 4077 2f40
00000030: 70e8 25bf 5259 d5bd 9b50 c23d ba52 2440

inputEmbed.bWlepConv.m f4 [1, 1, 1, 8]
0.734077 0.70268285 3.4510856 0.5021616 1.1564863 4.4935436 0.39049503 4.2524614
00000000: 78ec 3b3f 06e3 333f 96de 5c40 aa8d 003f
00000010: be07 943f 1ccb 8f40 f7ee c73e 2a14 8840

inputEmbed.bWlepConv.s f4 [1, 1, 1, 8]
1.7747813 2.2154708 2.689349 1.7279046 1.5547096 2.5603726 0.88549066 2.2696679
00000000: 092c e33f 46ca 0d40 4b1e 2c40 fa2b dd3f
00000010: b900 c73f 25dd 2340 84af 623f 3d42 1140

inputEmbed.bWlepConv.conv.bias f4 [1, 8, 1]
3.047597 -1.2498637 1.4866582 -0.0440355 -0.100763865 1.9772967 6.968233 1.5201299
00000000: d40b 4340 89fb 9fbf d14a be3f 925e 34bd
00000010: 495d cebd 0f18 fd3f c4fb de40 9e93 c23f

inputEmbed.bWlepConv.conv.module.weight f4 [4, 8, 1]
1.1018649 -1.3706743 0.9554674 -1.8303878 -0.36707515 0.8978395 -0.47821358 1.5824544
-0.6363375 -0.120837994 0.14960498 0.05421338 0.7320789 4.05554 -0.73309183 2.113748
-1.6363852 -0.23104955 -1.9510838 -0.15137781 0.4571441 0.37114617 2.6202142 -0.13791539
-1.1324514 1.0713137 -0.4344291 -0.46093532 0.39702612 0.80596364 3.3494985 -0.08223181
00000000: e909 8d3f 4172 afbf 8399 743f 264a eabf
00000010: 46f1 bbbe cfd8 653f 69d8 f4be de8d ca3f
00000020: 04e7 22bf e979 f7bd 0c32 193e d90e 5e3d
00000030: 8669 3b3f fcc6 8140 e8ab 3bbf a647 0740
00000040: 1275 d1bf 4198 6cbe 1dbd f9bf c902 1bbe
00000050: cb0e ea3e df06 be3e 97b1 2740 b139 0dbe
00000060: 2bf4 90bf cf20 893f 7e6d debe b7ff ebbe
00000070: 0247 cb3e a253 4e3f 2f5e 5640 2769 a8bd

inputEmbed.MdRttEmbed.m f4 [1, 1, 1, 3]
5.020435 2.3236804 0.5
00000000: 67a7 a040 2eb7 1440 0000 003f

inputEmbed.MdRttEmbed.s f4 [1, 1, 1, 3]
0.488697 0.823853 0.5
00000000: 7e36 fa3e 08e8 523f 0000 003f

inputEmbed.MdRttEmbed.conv.bias f4 [1, 8, 1]
-2.6130795 0.3638699 -1.1320456 -0.041486513 2.628711 -0.36123076 2.300997 -0.7227599
00000000: b23c 27c0 284d ba3e dfe6 90bf c3ed 29bd
00000010: cd3c 2840 3df3 b8be 8943 1340 cb06 39bf

inputEmbed.MdRttEmbed.conv.module.weight f4 [4, 3, 1]
3.554027 0.21600842 0.43527007 -6.693117 -0.35700437 -1.4536687 0.5599986 -2.4058714
-0.76682144 -2.657874 -1.8289877 1.0146661
00000000: 2e75 6340 5031 5d3e b8db de3e 042e d6c0
00000010: 47c9 b6be d111 babf 115c 0f3f ccf9 19c0
00000020: 694e 44bf 9c1a 2ac0 451c eabf 94e0 813f

inputEmbed.MdRttConv.m f4 [1, 1, 1, 8]
0.39091453 2.3617244 0.19059457 1.6813946 2.7637208 1.97444 2.2920299 1.1822711
00000000: f325 c83e 7e26 1740 392b 433e f037 d73f
00000010: cde0 3040 73ba fc3f 9eb0 1240 a954 973f

inputEmbed.MdRttConv.s f4 [1, 1, 1, 8]
1.3136586 3.7793307 0.82686096 2.742216 2.8981328 3.4568691 1.8827386 2.2070112
00000000: f725 a83f 8ee0 7140 29ad 533f 7880 2f40
00000010: 027b 3940 583d 5d40 94fd f03f ac3f 0d40

inputEmbed.MdRttConv.conv.bias f4 [1, 8, 1]
-0.023766207 -0.06810627 -0.00080766843 0.06419205 0.039887484 0.006776194 -0.0017536276 -0.09556776
00000000: 59b1 c2bc 4d7b 8bbd b6b9 53ba 1f77 833d
00000010: 0f61 233d d60a de3b fad9 e5ba 08b9 c3bd

inputEmbed.MdRttConv.conv.module.weight f4 [4, 8, 1]
1.7028323 -0.5926126 0.4448014 0.75062245 1.6046686 -2.8087583 0.22798066 1.3499655
-1.4405056 1.0744936 -2.484344 -1.0277969 -0.05587064 0.53225845 2.065867 0.028053168
1.015636 0.5393849 3.243699 1.8599268 -0.12588394 -0.045857675 0.8017827 1.0024385
1.2918425 -1.886812 0.30611947 -0.6821036 0.49740288 -3.0717824 0.19326001 0.013228251
00000000: 69f6 d93f 76b5 17bf 02bd e33e cb28 403f
00000010: c865 cd3f b2c2 33c0 c373 693e abcb ac3f
00000020: 7d62 b8bf 0289 893f 7eff 1ec0 d98e 83bf
00000030: 9dd8 64bd 1742 083f 2a37 0440 c2cf e53c
00000040: 5c00 823f 2115 0a3f c498 4f40 1512 ee3f
00000050: b8e7 00be 42d5 3bbd a241 4d3f e84f 803f
00000060: 185b a53f 0e83 f1bf b1bb 9c3e 579e 2ebf
00000070: 97ab fe3e 1598 44c0 f4e5 453e 4ebb 583c

inputEmbed.MdREmbed.m f4 [1, 1, 1, 4]
4.8552976 2.098696 0.33333802 0.33333802
00000000: 995e 9b40 0951 0640 48ab aa3e 48ab aa3e

inputEmbed.MdREmbed.s f4 [1, 1, 1, 4]
0.5257992 0.795477 0.47140604 0.47140604
00000000: c79a 063f 61a4 4b3f 225c f13e 225c f13e

inputEmbed.MdREmbed.conv.bias f4 [1, 8, 1]
-0.44440556 -2.2407277 -1.2701604 -1.6086913 1.0294178 -0.07388833 -1.0060072 -0.6641152
00000000: 2089 e3be 1568 0fc0 9e94 a2bf 99e9 cdbf
00000010: f6c3 833f c452 97bd d8c4 80bf 7403 2abf

inputEmbed.MdREmbed.conv.module.weight f4 [4, 4, 1]
-0.29324013 2.201985 -1.302367 -0.43280673 -2.506574 -0.87655497 0.7757651 0.7620597
1.617533 -2.2834072 -0.9281448 -1.2682148 1.8583492 0.6310799 -1.4693683 -1.2380911
00000000: 9223 96be 52ed 0c40 f6b3 a6bf d898 ddbe
00000010: b56b 20c0 e865 60bf 8b98 463f 5816 433f
00000020: 520b cf3f 5823 12c0 e69a 6dbf dd54 a2bf
00000030: 63de ed3f 748e 213f 4314 bcbf c579 9ebf

inputEmbed.MdRConv.m f4 [1, 1, 1, 8]
0.5874577 0.123022124 0.2485808 0.22984277 1.3217027 0.7615936 0.4521226 0.45381176
00000000: a163 163f 06f3 fb3d f78b 7e3e e75b 6b3e
00000010: 8e2d a93f ccf7 423f 9d7c e73e 045a e83e

inputEmbed.MdRConv.s f4 [1, 1, 1, 8]
1.3128673 0.81494725 0.6552185 1.0660541 1.8083138 1.7385489 1.2030219 1.1144776
00000000: 090c a83f 62a0 503f 66bc 273f 7674 883f
00000010: d476 e73f c588 de3f 9ffc 993f 34a7 8e3f

inputEmbed.MdRConv.conv.bias f4 [1, 8, 1]
-0.8251693 0.7891979 -3.0687354 -1.9619411 -1.2189707 -0.858777 0.77548504 1.3224593
00000000: 4c3e 53bf e008 4a3f 2966 44c0 e320 fbbf
00000010: 3b07 9cbf cfd8 5bbf 3086 463f 5946 a93f

inputEmbed.MdRConv.conv.module.weight f4 [4, 8, 1]
-1.7289236 -2.7726848 0.5208298 -0.5583256 0.0030764402 -1.5626848 1.8997889 -0.53344834
1.1298989 -0.7261645 -1.3725777 1.6911606 0.4355401 -0.58085173 -0.6802868 -0.29405177
-0.4920253 2.2967455 0.35616758 -0.9874213 -2.3735347 1.804883 -0.54879636 -1.4866856
0.6674841 -0.45308 0.71872044 1.5135216 -0.51430166 -1.241331 0.049537253 2.4204288
00000000: 5e4d ddbf ab73 31c0 1a55 053f 6dee 0ebf
00000010: 1a9e 493b 0e06 c8bf 482c f33f 1290 08bf
00000020: 87a0 903f ebe5 39bf a0b0 afbf f377 d83f
00000030: 1dff de3e b3b2 14bf 4727 2ebf f48d 96be
00000040: bdea fbbe e1fd 1240 995b b63e a4c7 7cbf
00000050: fee7 17c0 6806 e73f eb7d 0cbf b74b bebf
00000060: 3de0 2a3f 1afa e7be 10fe 373f 13bb c13f
00000070: 46a9 03bf efe3 9ebf 93e7 4a3d 4ee8 1a40

inputEmbed.bbDiJetEmbed.m f4 [1, 1, 1, 4]
4.516799 -0.00930785 2.1047263 4.579769
00000000: 9e89 9040 f47f 18bc d6b3 0640 788d 9240

inputEmbed.bbDiJetEmbed.s f4 [1, 1, 1, 4]
0.38109612 1.1868837 0.80590934 0.26481307
00000000: 081f c33e ceeb 973f 1350 4e3f 9495 873e

inputEmbed.bbDiJetEmbed.conv.bias f4 [1, 8, 1]
-3.2217696 -1.0466306 -0.47490647 -0.76860034 0.61276454 1.1336324 3.422611 1.7749815
00000000: 7931 4ec0 fef7 85bf f126 f3be fec2 44bf
00000010: 23de 1c3f de1a 913f 0f0c 5b40 9832 e33f

inputEmbed.bbDiJetEmbed.conv.module.weight f4 [4, 4, 1]
-0.2861975 0.010439862 -0.17872505 3.4615517 2.702904 -0.18320246 -0.31839335 1.0585201
-1.2437124 0.07919355 2.4782073 0.05131308 -1.2479894 -0.08161642 1.7927624 2.495243
00000000: 7b88 92be f40b 2b3c b303 37be 108a 5d40
00000010: 61fc 2c40 6d99 3bbe 7404 a3be 967d 873f
00000020: f831 9fbf 3a30 a23d f39a 1e40 aa2d 523d
00000030: 1ebe 9fbf 8226 a7bd 3d79 e53f 10b2 1f40

inputEmbed.nonbDiJetEmbed.m f4 [1, 1, 1, 4]
4.3128858 -0.011694949 1.5741246 4.67212
00000000: 2903 8a40 2c9c 3fbc ea7c c93f 0282 9540

inputEmbed.nonbDiJetEmbed.s f4 [1, 1, 1, 4]
0.642022 1.4768806 0.90703017 0.57206434
00000000: 8e5b 243f 6c0a bd3f 2133 683f cf72 123f

inputEmbed.nonbDiJetEmbed.conv.bias f4 [1, 8, 1]
-2.5217662 2.6560526 0.38182712 1.7709098 -1.3927965 0.21133299 0.28483176 0.78492445
00000000: 9e64 21c0 c4fc 2940 d87e c33e 2cad e23f
00000010: 2847 b2bf ad67 583e 78d5 913e cff0 483f

inputEmbed.nonbDiJetEmbed.conv.module.weight f4 [4, 4, 1]
-0.14859575 -0.3051506 -0.06518312 1.6621747 -1.9101986 -0.0144305155 -0.06086435 1.5222176
-3.0546498 -0.10610219 -0.14523032 -1.2966113 -0.083811134 0.12999448 0.032773487 4.066399
00000000: 7c29 18be b33c 9cbe ba7e 85bd 24c2 d43f
00000010: 6381 f4bf f86d 6cbc e64c 79bd 07d8 c23f
00000020: 627f 43c0 1b4c d9bd 42b7 14be 5cf7 a5bf
00000030: 2ca5 abbd 461d 053e 7e3d 063d f11f 8240

inputEmbed.bbDiJetConv.m f4 [1, 1, 1, 8]
0.0 0.0 0.0 0.0 0.0 0.0 0.0 0.0
00000000: 0000 0000 0000 0000 0000 0000 0000 0000
00000010: 0000 0000 0000 0000 0000 0000 0000 0000

inputEmbed.bbDiJetConv.s f4 [1, 1, 1, 8]
1.0 1.0 1.0 1.0 1.0 1.0 1.0 1.0
00000000: 0000 803f 0000 803f 0000 803f 0000 803f
00000010: 0000 803f 0000 803f 0000 803f 0000 803f

inputEmbed.bbDiJetConv.conv.bias f4 [1, 8, 1]
0.0 0.0 0.0 0.0 0.0 0.0 0.0 0.0
00000000: 0000 0000 0000 0000 0000 0000 0000 0000
00000010: 0000 0000 0000 0000 0000 0000 0000 0000

inputEmbed.bbDiJetConv.conv.module.weight f4 [4, 8, 1]
-0.17292346 0.26152802 -0.281855 0.33644664 -0.12532218 0.13296096 0.21564229 0.20213501
0.08143222 -0.18686998 -0.054251213 0.019810747 0.326365 0.04742806 -0.31344122 -0.1665206
-0.30184168 -0.06087505 0.06201428 0.19356011 0.21765323 0.01891913 0.23164797 -0.090593934
-0.04048917 -0.07198652 -0.3173434 0.31458437 0.3289599 -0.2572649 0.13250986 -0.047980897
00000000: d912 31be 00e7 853e 4c4f 90be bc42 ac3e
00000010: 7554 00be eb26 083e 55d1 5c3e 7bfc 4e3e
00000020: f0c5 a63d d85a 3fbe 8536 5ebd 264a a23c
00000030: 5019 a73e ed43 423d 5e7b a0be 6084 2abe
00000040: fe8a 9abe 1e58 79bd b002 7e3d 9f34 463e
00000050: 7de0 5e3e 4bfc 9a3c 2035 6d3e 5089 b9bd
00000060: f9d7 25bd ab6d 93bd d67a a2be 3411 a13e
00000070: 6f6d a83e 3ab8 83be aab0 073e 9e87 44bd

inputEmbed.nonbDiJetConv.m f4 [1, 1, 1, 8]
0.0 0.0 0.0 0.0 0.0 0.0 0.0 0.0
00000000: 0000 0000 0000 0000 0000 0000 0000 0000
00000010: 0000 0000 0000 0000 0000 0000 0000 0000

inputEmbed.nonbDiJetConv.s f4 [1, 1, 1, 8]
1.0 1.0 1.0 1.0 1.0 1.0 1.0 1.0
00000000: 0000 803f 0000 803f 0000 803f 0000 803f
00000010: 0000 803f 0000 803f 0000 803f 0000 803f

inputEmbed.nonbDiJetConv.conv.bias f4 [1, 8, 1]
0.0 0.0 0.0 0.0 0.0 0.0 0.0 0.0
00000000: 0000 0000 0000 0000 0000 0000 0000 0000
00000010: 0000 0000 0000 0000 0000 0000 0000 0000

inputEmbed.nonbDiJetConv.conv.module.weight f4 [4, 8, 1]
-0.101331726 0.020451 0.20321111 0.18430993 -0.12101679 -0.24076201 0.31839713 -0.22528198
0.13051075 0.1415671 0.2262541 -0.2417963 -0.29657233 0.14176603 0.20341654 0.033397835
-0.19480956 -0.34313548 -0.27733836 -0.2604865 -0.047860023 0.14915074 -0.0087683145 0.2727276
-0.31583574 0.02589456 0.25656882 0.31131816 0.19939029 0.100178294 -0.3491034 -0.3334932
00000000: 0287 cfbd db88 a73c 9316 503e bebb 3c3e
00000010: a7d7 f7bd 518a 76be f304 a33e 52b0 66be
00000020: 9ca4 053e f7f6 103e 28af 673e 7399 77be
00000030: 54d8 97be 1d2b 113e 6d4c 503e 2bcc 083d
00000040: 287c 47be 74af afbe 4bff 8dbe 7d5e 85be
00000050: df08 44bd f9ba 183e faa8 0fbc f4a2 8b3e
00000060: 39b5 a1be d420 d43c fd5c 833e 1865 9f3e
00000070: f82c 4c3e 472a cd3d aebd b2be 9fbf aabe

bbDiJetResNetBlock.reinforce.0.conv.m f4 [1, 1, 3, 8]
3.4707208 4.6699815 0.7828633 0.9767292 0.39344883 1.0882232 2.8013453 3.4076188
1.023171 1.6511256 1.3564024 1.2736163 5.066569 1.7796956 1.654983 4.133619
2.1170893 0.31116316 0.22427994 3.3694255 0.3003739 1.2661678 0.987454 1.4749411
00000000: 4a20 5e40 7d70 9540 bb69 483f ed0a 7a3f
00000010: 2072 c93e e64a 8b3f 3e49 3340 6d16 5a40
00000020: 44f7 823f 1558 d33f 989e ad3f dc05 a33f
00000030: 5521 a240 11cd e33f 7cd6 d33f 9b46 8440
00000040: 647e 0740 c750 9f3e a4a9 653e aba4 5740
00000050: 9cca 993e c911 a23f c9c9 7c3f dfca bc3f

bbDiJetResNetBlock.reinforce.0.conv.s f4 [1, 1, 3, 8]
3.4935002 5.376383 2.0580127 1.8547446 1.9571373 2.4864342 2.8553371 4.515391
2.4498396 2.8810036 2.5337656 2.0628517 5.9895678 2.9097857 2.2025967 6.27579
2.0439293 1.1176403 1.0476694 3.2293763 1.0747848 1.3613381 1.1498736 3.1316466
00000000: 8295 5f40 540b ac40 7bb6 0340 4568 ed3f
00000010: 7a83 fa3f bd21 1f40 d8bd 3640 157e 9040
00000020: 2cca 1c40 5d62 3840 3729 2240 c305 0440
00000030: 8aaa bf40 ee39 3a40 58f7 0c40 46d3 c840
00000040: bdcf 0240 d60e 8f3f 081a 863f 1aae 4e40
00000050: 8c92 893f 5440 ae3f 0f2f 933f e66c 4840

bbDiJetResNetBlock.reinforce.0.conv.conv.bias f4 [1, 8, 1]
1.8906026 -0.7703218 -4.525458 -0.9654609 0.85473466 0.8091537 2.5143917 0.79797375
00000000: 44ff f13f cf33 45bf 8dd0 90c0 7228 77bf
00000010: e4cf 5a3f b224 4f3f cbeb 2040 0248 4c3f

bbDiJetResNetBlock.reinforce.0.conv.conv.module.weight f4 [4, 8, 3]
-0.012740156 -0.16468795 2.3810918 0.74147594 1.0226794 -1.4360306 -0.62600857 -0.81600755
1.721574 0.78750014 -0.4716115 -0.29491362 0.552507 1.0886229 -0.94826 0.11948474
-2.0300028 1.4796278 -0.14007787 0.73123425 0.37523812 0.08758222 2.451923 -0.768
-1.6440259 0.17795864 2.9924495 -1.7900746 -0.39166948 1.2151973 -1.0836531 -0.68662715
-1.6837358 -1.0726979 -0.72073704 -0.30916047 -0.7056487 0.37936777 -1.6677657 0.33374694
0.7322056 0.0127831455 1.3193983 -0.7582517 2.0097055 0.50803035 -0.33252624 -0.86423475
0.18164787 2.0233116 0.966904 -0.6981815 -0.9994678 1.504024 1.0798687 0.80689913
-0.8310755 -1.4459212 0.3083936 -0.30469435 0.13542812 -0.2571995 0.8130069 0.52643865
2.2940507 -0.007374226 -1.4595319 0.6453652 0.66983676 2.31854 1.224671 -0.11216451
-0.08369614 -0.25160465 3.388736 0.5966184 0.01638209 -1.0913265 -0.6503509 -1.2699947
-0.23213096 0.6401302 0.12502453 3.0093863 -0.5603804 0.05722994 -0.5692123 0.16951932
-1.1428356 1.5870891 1.3389542 -0.24135105 -0.5473806 0.37834644 0.45672137 -2.5353866
00000000: 16bc 50bc f5a3 28be cf63 1840 5ed1 3d3f
00000010: 29e7 823f dacf b7bf 1942 20bf dfe5 50bf
00000020: 895c dc3f 9c99 493f 1077 f1be ebfe 96be
00000030: 1971 0d3f ff57 8b3f 2bc1 72bf 6ab4 f43d
00000040: 91eb 01c0 7264 bd3f 9370 0fbe 2b32 3b3f
00000050: 361f c03e 4f5e b33d 4eec 1c40 a69b 44bf
00000060: 716f d2bf ca3a 363e 4b84 3f40 2a21 e5bf
00000070: e788 c8be 968b 9b3f 25b5 8abf ccc6 2fbf
00000080: a884 d7bf 2a4e 89bf 3982 38bf 484a 9ebe
00000090: 65a5 34bf 7e3c c23e 5979 d5bf e1e0 aa3e
000000a0: d471 3b3f 6670 513c 0be2 a83f c91c 42bf
000000b0: 049f 0040 470e 023f e140 aabe 7d3e 5dbf
000000c0: e601 3a3e f07d 0140 0587 773f 06bc 32bf
000000d0: 1fdd 7fbf dc83 c03f 2339 8a3f f190 4e3f
000000e0: 5dc1 54bf f213 b9bf c4e5 9d3e e600 9cbe
000000f0: abad 0a3e a7af 83be 3821 503f afc4 063f
00000100: bad1 1240 7ea3 f1bb f1d1 babf a736 253f
00000110: 6c7a 2b3f f662 1440 05c2 9c3f 82b6 e5bd
00000120: e268 abbd 53d2 80be 0de1 5840 fcbb 183f
00000130: bc33 863c 96b0 8bbf 667d 26bf 308f a2bf
00000140: bdb3 6dbe 93df 233f 6e06 003e c999 4040
00000150: 1775 0fbf f169 6a3d e6b7 11bf 7996 2d3e
00000160: 7048 92bf bc25 cb3f da62 ab3f bb24 77be
00000170: 2321 0cbf a0b6 c13e 62d7 e93e c643 22c0

bbDiJetResNetBlock.reinforce.1.conv.m f4 [1, 1, 3, 8]
6.22661 5.960987 2.5112455 2.0263705 0.99449885 2.1628284 4.29119 5.134343
2.5107195 1.984137 4.211978 2.6637573 7.156724 4.6884747 2.1527624 5.6999116
4.823278 2.0875723 0.8760211 5.873828 1.920155 3.9789548 4.5846705 4.849033
00000000: 6440 c740 68c0 be40 3fb8 2040 0eb0 0140
00000010: 7a97 7e3f c86b 0a40 6e51 8940 8a4c a440
00000020: a1af 2040 34f8 fd3f 86c8 8640 007b 2a40
00000030: e203 e540 fc07 9640 dcc6 0940 ad65 b640
00000040: 4b58 9a40 c99a 0540 eb42 603f 66f6 bb40
00000050: a4c7 f53f 32a7 7e40 9fb5 9240 472b 9b40

bbDiJetResNetBlock.reinforce.1.conv.s f4 [1, 1, 3, 8]
5.6417503 6.228539 3.8098834 3.7679265 3.0318618 4.7161016 5.094825 6.064745
4.613898 3.3760788 4.7604847 4.2320037 8.205395 6.6464643 3.6908615 8.326958
4.8395786 3.3604548 2.7848494 6.8683896 3.5187721 5.4724207 4.2167773 8.357107
00000000: 3889 b440 3150 c740 21d5 7340 b525 7140
00000010: 060a 4240 4eea 9640 ce08 a340 6412 c240
00000020: 0da5 9340 ad11 5840 e455 9840 936c 8740
00000030: 4c49 0341 d6af d440 1337 6c40 383b 0541
00000040: d4dd 9a40 b111 5740 f93a 3240 d9c9 db40
00000050: 9033 6140 121e af40 d7ef 8640 b6b6 0541

bbDiJetResNetBlock.reinforce.1.conv.conv.bias f4 [1, 8, 1]
-1.0951025 0.38122997 -0.25817522 1.4746221 -3.6397269 -2.6257324 0.28546664 -1.5655693
00000000: 522c 8cbf 9330 c33e 8b2f 84be 6bc0 bc3f
00000010: 49f1 68c0 000c 28c0 af28 923e 9364 c8bf

bbDiJetResNetBlock.reinforce.1.conv.conv.module.weight f4 [4, 8, 3]
-0.55989605 0.9427858 1.0762858 0.19068329 1.3896981 1.4908783 -0.8467514 -0.20175846
0.79958016 0.69228715 0.4025888 2.3294814 1.3996263 -0.8727501 1.4459516 0.032316588
0.71552134 -0.07690285 0.28186625 0.35263097 -0.4134847 0.32991543 -0.34114662 0.9642512
-0.36307183 1.8357857 -1.4213598 2.1048653 1.2496244 -3.572347 -2.2005665 -0.92981225
-1.3114412 1.1215521 0.6815673 -0.7830591 0.17697342 -1.0923917 -0.4502945 -1.2798572
-0.7410565 1.352056 0.5076959 -0.21415524 -3.5011969 -0.5613002 -1.9296219 0.30582133
-0.6571771 -0.9099953 1.9873419 1.2746713 -0.20909554 0.93285733 -0.51335865 0.16293606
-1.8048643 0.3357715 0.6128124 3.0953777 -0.85948336 -0.73272854 -3.9875658 -0.4532514
-1.4348257 2.6485157 0.16648996 -0.20001787 -0.47163355 1.0085484 0.71902484 -2.3638034
1.6807785 1.1720356 -1.1417484 1.9497802 0.17792657 0.857512 -0.49599913 -1.0129735
-0.82841915 0.60752887 0.67938125 2.170467 -0.5223635 -2.1925414 1.0899762 -1.0931084
-1.4502565 0.21195336 2.1232808 2.0863748 -1.766675 -0.77497023 -0.7411063 -0.399094
00000000: 5955 0fbf 695a 713f bcc3 893f 7b42 433e
00000010: a1e1 b13f 1ad5 be3f b3c4 58bf c599 4ebe
00000020: 49b1 4c3f bb39 313f 1f20 ce3e 3916 1540
00000030: f426 b33f 8d6c 5fbf f114 b93f 665e 043d
00000040: 682c 373f 3e7f 9dbd c650 903e 0c8c b43e
00000050: 44b4 d3be adea a83e c5aa aebe 2bd9 763f
00000060: 8de4 b9be 07fb ea3f 1eef b5bf 1db6 0640
00000070: b1f3 9f3f 55a1 64c0 15d6 0cc0 2d08 6ebf
00000080: 4edd a7bf 058f 8f3f 327b 2e3f 9076 48bf
00000090: 8538 353e 7ed3 8bbf 008d e6be 5cd2 a3bf
000000a0: e1b5 3dbf 2c10 ad3f 5cf8 013f 834b 5bbe
000000b0: 9c13 60c0 5fb1 0fbf dafd f6bf 9d94 9c3e
000000c0: c23c 28bf 74f5 68bf 3861 fe3f 6e28 a33f
000000d0: 241d 56be bdcf 6e3f 796b 03bf b6d8 263e
000000e0: cb05 e7bf 3eea ab3e 46e1 1c3f ab1a 4640
000000f0: 1a07 5cbf 1994 3bbf 4734 7fc0 9110 e8be
00000100: 5ea8 b7bf 4881 2940 587c 2a3e 7cd1 4cbe
00000110: f479 f1be 1d18 813f 0312 383f 8e48 17c0
00000120: c023 d73f 4305 963f d024 92bf 6692 f93f
00000130: 6232 363e e885 5b3f 99f3 fdbe 1ea9 81bf
00000140: 4713 54bf 0387 1b3f eeeb 2d3f eee8 0a40
00000150: 9db9 05bf 9952 0cc0 5784 8b3f faea 8bbf
00000160: 01a2 b9bf 4d0a 593e d5e3 0740 2a87 0540
00000170: 6822 e2bf 7364 46bf 24b9 3dbf 0c56 ccbe

bbDiJetResNetBlock.conv.0.m f4 [1, 1, 1, 8]
2.246946 3.1605535 1.0696328 1.1251727 2.7300086 1.4339595 2.228164 3.7706194
00000000: f7cd 0f40 8246 4a40 bae9 883f a905 903f
00000010: 76b8 2e40 fc8b b73f 3d9a 0e40 d451 7140

bbDiJetResNetBlock.conv.0.s f4 [1, 1, 1, 8]
3.2566082 4.56928 2.3267398 1.9672462 5.032173 2.729133 2.6128383 5.479666
00000000: 456c 5040 8b37 9240 4ee9 1440 b9ce fb3f
00000010: 9007 a140 1daa 2e40 be38 2740 6d59 af40

bbDiJetResNetBlock.conv.0.conv.bias f4 [1, 8, 1]
1.8219422 -1.2138696 2.556727 -0.5499199 0.7314223 1.1999716 -0.3622904 0.35748854
00000000: 6735 e93f 1460 9bbf 6aa1 2340 8dc7 0cbf
00000010: 7e3e 3b3f ab98 993f 217e b9be bd08 b73e

bbDiJetResNetBlock.conv.0.conv.module.weight f4 [4, 8, 1]
2.0857859 -0.3858601 -0.3184038 1.4011159 -0.44897926 -0.49546996 -0.8902299 -1.4951783
-0.88182855 0.9559432 -0.59773713 0.46379587 -2.0076878 -1.1284579 1.5511224 0.14004998
0.80804735 -0.21802813 -0.32843763 1.1785047 1.2019128 -0.057826463 -2.145004 0.7963589
0.78249085 -0.27876183 0.11061567 2.1714272 0.6313975 0.092093974 -0.6052511 -2.332145
00000000: 847d 0540 748f c5be d305 a3be c457 b33f
00000010: 9ce0 e5be 3dae fdbe 1be6 63bf 0162 bfbf
00000020: 84bf 61bf b2b8 743f 4d05 19bf a776 ed3e
00000030: f57d 00c0 4f71 90bf 2e8b c63f 4369 0f3e
00000040: 31dc 4e3f c442 5fbe fa28 a8be 3ed9 963f
00000050: 47d8 993f 71db 6cbd bf47 09c0 2dde 4b3f
00000060: 5251 483f dfb9 8ebe 788a e23d aaf8 0a40
00000070: 44a3 213f c49b bc3d bcf1 1abf dd41 15c0

nonbDiJetResNetBlock.reinforce.0.conv.m f4 [1, 1, 3, 8]
2.285032 0.5309265 0.7424957 4.735442 0.8446635 2.8015711 0.90658057 0.9956652
0.8442141 2.0225093 0.94643307 2.684803 1.8237202 0.72266424 2.137373 2.4281886
-0.0743014 2.597725 1.3151523 2.373583 -0.03165772 0.9025332 1.2870333 1.9347992
00000000: f73d 1240 cdea 073f 3314 3e3f be88 9740
00000010: de3b 583f f14c 3340 aa15 683f eae3 7e3f
00000020: 6a1e 583f cb70 0140 7049 723f d0d3 2b40
00000030: aa6f e93f 8600 393f b8ca 0840 7167 1b40
00000040: 552b 98bd 2041 2640 e956 a83f c9e8 1740
00000050: 87ab 01bd 6a0c 673f 82bd a43f 80a7 f73f

nonbDiJetResNetBlock.reinforce.0.conv.s f4 [1, 1, 3, 8]
2.731149 1.4731519 1.4676414 4.0299063 1.6939249 3.248279 1.4317036 2.4286585
1.7064509 2.507436 1.6934415 3.332052 2.3330722 1.8403971 3.3825428 3.956452
0.33198112 2.3716974 2.3868258 3.274254 0.46331587 1.2906325 1.8489017 2.4130259
00000000: 25cb 2e40 3e90 bc3f acdb bb3f fef4 8040
00000010: 88d2 d83f cee3 4f40 1042 b73f 246f 1b40
00000020: fc6c da3f d579 2040 b1c2 d83f 5740 5540
00000030: 0e51 1540 2292 eb3f 957b 5840 8236 7d40
00000040: 6ef9 a93e e4c9 1740 c1c1 1840 618d 5140
00000050: bd37 ed3e 7233 a53f d0a8 ec3f 046f 1a40

nonbDiJetResNetBlock.reinforce.0.conv.conv.bias f4 [1, 8, 1]
-2.8536088 0.3825381 0.29489332 -0.50268805 -2.9669883 -2.8447225 0.9753042 2.648721
00000000: 87a1 36c0 09dc c33e 42fc 963e 2ab0 00bf
00000010: 23e3 3dc0 ef0f 36c0 89ad 793f a584 2940

nonbDiJetResNetBlock.reinforce.0.conv.conv.module.weight f4 [4, 8, 3]
-0.52807444 -0.51373714 0.36454406 0.8326122 0.16900906 0.45584974 2.2511039 2.0586984
-0.58747655 -1.7633034 -1.7038351 0.28484383 1.838805 -0.7213242 1.3356626 -0.31588858
-0.43527296 0.63972545 -0.408514 -1.1400769 -2.5797966 -0.105274916 -0.08429875 1.0539143
-0.21125332 -0.49633107 -0.23720273 0.17304416 1.6676823 -0.82491934 -0.11986725 0.18796627
-0.74526024 0.095978595 -0.19720355 7.2881837 -0.18230689 0.30357122 2.1520867 -0.35231915
-0.9131399 0.5465134 -0.49239427 0.103333384 -0.06581289 0.14328574 0.4075794 -0.11728236
-1.626036 -0.12357068 -1.8971883 -1.4524504 -1.7061639 -2.2035818 0.8951941 -1.0277044
-0.044523917 -0.51264507 1.0326971 -3.9352322 0.47479942 -0.6332648 -0.74044764 -0.56470484
1.059997 1.118195 -0.93044263 -0.83458114 0.97918105 0.13743696 0.0895561 1.8786702
0.18446767 -0.24191128 0.21680522 0.8437769 -0.6191025 1.5875198 -0.49628597 -0.08668004
-0.53443646 0.12861283 -0.5011078 0.47023192 -0.1153749 0.39218232 -0.45642546 -0.40705243
0.05199288 -2.4961944 1.4385407 0.11577381 -0.5288786 -0.3924505 -1.0651965 -5.8666368
00000000: e32f 07bf 4784 03bf 85a5 ba3e 1326 553f
00000010: b610 2d3e 2365 e93e 1612 1040 b7c1 0340
00000020: dd64 16bf edb3 e1bf 4517 dabf 0dd7 913e
00000030: f65d eb3f b4a8 38bf fef6 aa3f 26bc a1be
00000040: 19dc debe 0cc5 233f bf28 d1be 0aee 91bf
00000050: 631b 25c0 609a d7bd d3a4 acbd aae6 863f
00000060: ca52 58be 1b1f febe 46e5 72be 7d32 313e
00000070: 9d76 d53f ea2d 53bf f67c f5bd 3b7a 403e
00000080: 60c9 3ebf 6d90 c43d baef 49be cd38 e940
00000090: a8ae 3abe b06d 9b3e cabb 0940 2d63 b4be
000000a0: 89c3 69bf 4de8 0b3f 1a1b fcbe 74a0 d33d
000000b0: e9c8 86bd 7fb9 123e 3fae d03e bc31 f0bd
000000c0: f321 d0bf a012 fdbd 11d7 f2bf e5e9 b9bf
000000d0: 9463 dabf 7c07 0dc0 712b 653f d18b 83bf
000000e0: b65e 36bd b53c 03bf 6b2f 843f d8da 7bc0
000000f0: e918 f33e a41d 22bf fa8d 3dbf 7f90 10bf
00000100: fbad 873f 0421 8f3f 7d31 6ebf 1ca7 55bf
00000110: 9cab 7a3f 46bc 0c3e 3069 b73d 4478 f03f
00000120: 18e5 3c3e 97b7 77be 3002 5e3e c301 583f
00000130: 807d 1ebf d933 cb3f 3219 febe 4e85 b1bd
00000140: d4d0 08bf 15b3 033e 9a48 00bf 3dc2 f03e
00000150: ad49 ecbd 1fcc c83e 99b0 e9be 2d69 d0be
00000160: 7cf6 543d a6c1 1fc0 1a22 b83f d21a ed3d
00000170: 9764 07bf 46ef c8be 5c58 88bf 7dbb bbc0

nonbDiJetResNetBlock.reinforce.1.conv.m f4 [1, 1, 3, 8]
4.617409 2.3268297 2.062944 7.997637 1.9910606 5.5060086 2.2176273 1.5959203
2.1215334 5.6174173 2.1301842 4.389396 3.599301 1.5506284 3.2380476 4.4043074
1.3943332 4.540572 3.711976 5.7817245 1.2129799 1.6902397 3.8795557 6.7870235
00000000: d1c1 9340 c7ea 1440 4607 0440 a4ec ff40
00000010: 13db fe3f 3931 b040 9bed 0d40 1e47 cc3f
00000020: 34c7 0740 e2c1 b340 f054 0840 ef75 8c40
00000030: f35a 6640 fe7a c63f 2c3c 4f40 16f0 8c40
00000040: 8379 b23f 5e4c 9140 0491 6d40 e303 b940
00000050: ed42 9b3f c659 d83f a44a 7840 4c2f d940

nonbDiJetResNetBlock.reinforce.1.conv.s f4 [1, 1, 3, 8]
5.591731 3.5233436 3.4347644 5.824046 3.3486085 6.7669187 3.3671427 4.066083
3.903873 4.604195 3.6274612 4.7607374 4.379594 3.866344 5.096998 7.272295
3.5190315 6.643542 4.3326902 6.724573 2.3776736 2.4822145 6.5814323 9.912897
00000000: 76ef b240 767e 6140 2ed3 5b40 965e ba40
00000010: 9a4f 5640 998a d840 447f 5740 5a1d 8240
00000020: 0ed9 7940 9155 9340 5328 6840 f657 9840
00000030: a225 8c40 2e72 7740 9c1a a340 a4b6 e840
00000040: d037 6140 e597 d440 66a5 8a40 b42f d740
00000050: ce2b 1840 9adc 1e40 189b d240 3a9b 1e41

nonbDiJetResNetBlock.reinforce.1.conv.conv.bias f4 [1, 8, 1]
-2.9047534 3.8174434 0.35750568 -2.743284 0.12460158 0.053352762 0.71716803 0.9739222
00000000: 7be7 39c0 fe50 7440 fc0a b73e f791 2fc0
00000010: 1d2f ff3d 6d88 5a3d 5398 373f f752 793f

nonbDiJetResNetBlock.reinforce.1.conv.conv.module.weight f4 [4, 8, 3]
0.026126193 0.14165695 0.1547962 0.9270558 -0.1702688 -0.20471139 -0.1501052 0.26252326
-1.5174026 -0.10611793 0.80597013 1.0171142 0.03340437 -1.2648888 0.6237787 -1.1950269
0.6941598 -1.5498983 0.5837223 0.5536144 -0.63194376 0.88231736 -0.58199227 -0.2155458
0.75713843 0.82637453 0.7911379 1.3730037 0.24449942 0.8939049 0.6825605 0.17483431
-0.6112217 0.518898 0.7135279 1.1962817 -0.4457686 0.21534848 1.0564004 -1.6062154
0.019594785 -1.8197814 -1.1025378 -0.6157602 0.012113649 -0.00794262 -1.5667055 -0.5830899
-1.1306735 -0.5775336 0.56735146 -0.011864021 -1.1976308 -0.5584474 -0.031087456 -1.0851363
-1.3214301 -1.8339608 -0.73449546 3.0269034 0.38182402 0.61921275 -0.82229096 -0.7099266
0.14527062 -1.5272692 0.16884123 -0.080020346 0.07791899 -0.14629988 0.6774991 0.17489235
-1.7310308 -1.3361841 1.0911144 -0.9287861 -1.2941756 -0.1328808 0.71592915 0.54013145
-0.8539425 -0.64086926 -0.37390673 -2.186701 1.0342331 1.5442775 0.33916315 -0.0034875472
-0.47321364 1.3580788 -1.0601321 -1.801531 -2.6004195 0.7920404 0.77066565 -0.42292097
00000000: 9906 d63c 850e 113e e582 1e3e 8753 6d3f
00000010: f25a 2ebe dd9f 51be 2db5 19be 7369 863e
00000020: 403a c2bf 5b54 d9bd 0f54 4e3f cc30 823f
00000030: 05d3 083d e0e7 a1bf f6af 1f3f a4f6 98bf
00000040: 75b4 313f 1163 c6bf d36e 153f acb9 0d3f
00000050: 11c7 21bf 8ddf 613f 72fd 14bf 0ab8 5cbe
00000060: d3d3 413f 488d 533f 0388 4a3f 96be af3f
00000070: 0e5e 7a3e f4d6 643f 49bc 2e3f c407 333e
00000080: 0679 1cbf 80d6 043f c4a9 363f c21f 993f
00000090: c83b e4be 5084 5c3e 2138 873f 7798 cdbf
000000a0: 3e85 a03c 99ee e8bf f51f 8dbf 76a2 1dbf
000000b0: 5478 463c c321 02bc ce89 c8bf 6145 15bf
000000c0: e9b9 90bf 3ed9 13bf f23d 113f 5061 42bc
000000d0: f74b 99bf 69f6 0ebf 1fab febc bfe5 8abf
000000e0: 9f24 a9bf 3abf eabf e507 3cbf c9b8 4140
000000f0: 707e c33e ba84 1e3f a981 52bf c0bd 35bf
00000100: d2c1 143e 8f7d c3bf b7e4 2c3e b5e1 a3bd
00000110: fe93 9f3d a3cf 15be 9570 2d3f fb16 333e
00000120: 6b92 ddbf 1508 abbf a3a9 8b3f edc4 6dbf
00000130: 8ca7 a5bf e811 08be 2247 373f 0e46 0a3f
00000140: fa9b 5abf 0210 24bf b470 bfbe e9f2 0bc0
00000150: c061 843f e3aa c53f cba6 ad3e 558f 64bb
00000160: 0f49 f2be 87d5 ad3f 69b2 87bf 9198 e6bf
00000170: 466d 26c0 29c3 4a3f 584a 453f 1989 d8be

nonbDiJetResNetBlock.conv.0.m f4 [1, 1, 1, 8]
1.564623 1.2767178 0.8444643 3.7101226 1.3341918 1.7621176 1.5219765 1.7119268
00000000: 9145 c83f 7d6b a33f d02e 583f a672 6d40
00000010: ccc6 aa3f 128d e13f 20d0 c23f 6b20 db3f

nonbDiJetResNetBlock.conv.0.s f4 [1, 1, 1, 8]
2.3877575 2.1875193 1.5871493 3.835677 2.0960855 2.8372478 2.6684463 3.3597593
00000000: 05d1 1840 5100 0c40 b527 cb3f bb7b 7540
00000010: 4426 0640 7895 3540 d3c7 2a40 4c06 5740

nonbDiJetResNetBlock.conv.0.conv.bias f4 [1, 8, 1]
0.12991704 2.1239846 -0.7922801 1.4866763 -0.55112094 0.51659256 -0.7798188 -0.41231495
00000000: f908 053e 5def 0740 ded2 4abf 694b be3f
00000010: 4316 0dbf 693f 043f 34a2 47bf f21a d3be

nonbDiJetResNetBlock.conv.0.conv.module.weight f4 [4, 8, 1]
1.9392538 1.5862995 0.800111 2.4553485 -0.46636814 -0.35993376 0.12856732 -1.3440802
-0.21668535 0.82133734 0.29148215 -0.08294407 0.18645045 -3.317822 -1.1136332 -0.16357926
-1.7634822 -0.52609277 1.9340872 -0.7230417 -0.5691968 0.4575129 -1.4866327 -0.083345756
0.0846468 0.34238175 0.16442059 0.7666577 -0.48861736 1.1694784 -0.5268981 -2.737616
00000000: 7839 f83f dd0b cb3f 13d4 4c3f 6e24 1d40
00000010: cec7 eebe 3d49 b8be 27a7 033e d20a acbf
00000020: c4e2 5dbe 2a43 523f 263d 953e 95de a9bd
00000030: deec 3e3e 3257 54c0 888b 8ebf 5281 27be
00000040: c9b9 e1bf 04ae 06bf 2b90 f73f 4319 39bf
00000050: e2b6 11bf 213f ea3e fb49 bebf 2eb1 aabd
00000060: 4d5b ad3d a94c af3e df5d 283e ae43 443f
00000070: 0e2c fabe 78b1 953f cbe2 06bf 1a35 2fc0

lepWResNetBlock.reinforce.0.conv.m f4 [1, 1, 1, 8]
0.0 0.0 0.0 0.0 0.0 0.0 0.0 0.0
00000000: 0000 0000 0000 0000 0000 0000 0000 0000
00000010: 0000 0000 0000 0000 0000 0000 0000 0000

lepWResNetBlock.reinforce.0.conv.s f4 [1, 1, 1, 8]
1.0 1.0 1.0 1.0 1.0 1.0 1.0 1.0
00000000: 0000 803f 0000 803f 0000 803f 0000 803f
00000010: 0000 803f 0000 803f 0000 803f 0000 803f

lepWResNetBlock.reinforce.0.conv.conv.bias f4 [1, 8, 1]
0.0 0.0 0.0 0.0 0.0 0.0 0.0 0.0
00000000: 0000 0000 0000 0000 0000 0000 0000 0000
00000010: 0000 0000 0000 0000 0000 0000 0000 0000

lepWResNetBlock.reinforce.0.conv.conv.module.weight f4 [4, 8, 1]
0.28175426 -0.28098765 -0.23276351 0.26030904 -0.2357347 0.056330275 -0.17527348 0.15871474
-0.32492784 0.051387165 0.14399382 -0.32916048 0.21372578 0.17663385 0.066050224 0.32327074
-0.040612027 0.34431523 -0.045842916 0.33460554 -0.3518498 -0.13451798 -0.25821447 0.23574063
0.1653012 0.21028988 -0.26573074 -0.30353817 -0.058836956 -0.32504404 -0.26797283 0.24012779
00000000: 1842 903e 9ddd 8fbe 8f59 6ebe 3a47 853e
00000010: 7064 71be 93ba 663d e47a 33be 1e86 223e
00000020: f15c a6be 597b 523d 1e73 133e b987 a8be
00000030: eeda 5a3e 81df 343e 5745 873d be83 a53e
00000040: cc58 26bd 164a b03e c8c5 3bbd 6b51 ab3e
00000050: a825 b4be 15bf 09be b034 84be fe65 713e
00000060: b844 293e 3b56 573e dc0d 88be 5b69 9bbe
00000070: 05ff 70bd 2c6c a6be bc33 89be 0fe4 753e

lepWResNetBlock.reinforce.1.conv.m f4 [1, 1, 1, 8]
0.0 0.0 0.0 0.0 0.0 0.0 0.0 0.0
00000000: 0000 0000 0000 0000 0000 0000 0000 0000
00000010: 0000 0000 0000 0000 0000 0000 0000 0000

lepWResNetBlock.reinforce.1.conv.s f4 [1, 1, 1, 8]
1.0 1.0 1.0 1.0 1.0 1.0 1.0 1.0
00000000: 0000 803f 0000 803f 0000 803f 0000 803f
00000010: 0000 803f 0000 803f 0000 803f 0000 803f

lepWResNetBlock.reinforce.1.conv.conv.bias f4 [1, 8, 1]
0.0 0.0 0.0 0.0 0.0 0.0 0.0 0.0
00000000: 0000 0000 0000 0000 0000 0000 0000 0000
00000010: 0000 0000 0000 0000 0000 0000 0000 0000

lepWResNetBlock.reinforce.1.conv.conv.module.weight f4 [4, 8, 1]
-0.18190496 0.10599144 -0.06403219 0.115259364 0.35169274 0.100697584 -0.19800581 -0.046374682
0.054215387 0.040475134 0.09458183 0.02913936 0.120627314 0.09947191 0.30281314 -0.14903542
0.2417405 -0.2798776 0.20983255 0.1629658 0.19713716 -0.057824884 -0.04972915 0.31805077
-0.122485064 0.0038745597 0.16913694 -0.09799715 0.00019505562 0.3319475 -0.2627134 -0.22992872
00000000: 4b45 3abe 0a12 d93d 4f23 83bd 1a0d ec3d
00000010: 1211 b43e 893a ce3d 09c2 4abe 61f3 3dbd
00000020: f410 5e3d 41c9 253d 1eb4 c13d abb5 ee3c
00000030: 740b f73d eeb7 cb3d 530a 9b3e be9c 18be
00000040: d28a 773e 1e4c 8fbe 58de 563e 82e0 263e
00000050: 53de 493e c9d9 6cbd cbb0 4bbd 8dd7 a23e
00000060: 73d9 fabd 53ec 7d3b 3c32 2d3e bbb2 c8bd
00000070: d887 4c39 06f5 a93e 5f82 86be 6f72 6bbe

lepWResNetBlock.conv.0.m f4 [1, 1, 1, 8]
0.0 0.0 0.0 0.0 0.0 0.0 0.0 0.0
00000000: 0000 0000 0000 0000 0000 0000 0000 0000
00000010: 0000 0000 0000 0000 0000 0000 0000 0000

lepWResNetBlock.conv.0.s f4 [1, 1, 1, 8]
1.0 1.0 1.0 1.0 1.0 1.0 1.0 1.0
00000000: 0000 803f 0000 803f 0000 803f 0000 803f
00000010: 0000 803f 0000 803f 0000 803f 0000 803f

lepWResNetBlock.conv.0.conv.bias f4 [1, 8, 1]
0.0 0.0 0.0 0.0 0.0 0.0 0.0 0.0
00000000: 0000 0000 0000 0000 0000 0000 0000 0000
00000010: 0000 0000 0000 0000 0000 0000 0000 0000

lepWResNetBlock.conv.0.conv.module.weight f4 [4, 8, 1]
-0.2522493 0.0032906572 -0.17827152 -0.11497129 -0.25466484 -0.27452022 -0.2825812 0.11885794
-0.27346766 0.2503378 0.31811538 0.1329806 -0.30280134 -0.2501755 -0.1613681 0.15627533
-0.35051715 0.18983236 0.26571766 -0.026406433 0.21748035 0.22559649 0.09594342 0.28754118
0.18906258 0.1492844 -0.12228124 0.23711105 0.014975871 0.24260193 0.26885566 0.106683366
00000000: d226 81be 11a8 573b cf8c 36be 1176 ebbd
00000010: 6e63 82be ea8d 8cbe 7cae 90be cb6b f33d
00000020: f403 8cbe 472c 803e 05e0 a23e 112c 083e
00000030: c708 9bbe 0117 80be ae3d 25be a406 203e
00000040: fc76 b3be 6a63 423e 250c 883e 4e52 d8bc
00000050: 2bb3 5e3e c402 673e fc7d c43d 9938 933e
00000060: 9f99 413e 02de 183e 966e fabd 3dcd 723e
00000070: 5b5d 753c a46c 783e 73a7 893e cf7c da3d

bWhadResNetBlock.reinforce.0.conv.m f4 [1, 1, 1, 8]
0.16230254 6.665867 3.8411593 3.3928032 1.1331766 2.15279 4.0031447 4.812261
00000000: a332 263e c84e d540 8ed5 7540 b023 5940
00000010: ee0b 913f 50c7 0940 c319 8040 0bfe 9940

bWhadResNetBlock.reinforce.0.conv.s f4 [1, 1, 1, 8]
0.8668803 5.0059357 5.4456825 5.647794 2.0694048 3.1272821 5.281129 6.433096
00000000: deeb 5d3f a030 a040 0843 ae40 baba b440
00000010: 2171 0440 6425 4840 02ff a840 ecdb cd40

bWhadResNetBlock.reinforce.0.conv.conv.bias f4 [1, 8, 1]
0.0 0.0 0.0 0.0 0.0 0.0 0.0 0.0
00000000: 0000 0000 0000 0000 0000 0000 0000 0000
00000010: 0000 0000 0000 0000 0000 0000 0000 0000

bWhadResNetBlock.reinforce.0.conv.conv.module.weight f4 [4, 8, 1]
-0.12965024 0.20094807 -0.052313216 -0.17038302 -0.04996589 0.09093086 -0.15293881 0.23911062
-0.24428351 -0.27736706 0.3075906 0.042435892 -0.06730422 -0.20034815 -0.23750229 0.25891596
0.33886412 0.2584685 0.1463565 -0.009116194 -0.092180006 0.22477832 0.065287784 -0.17483394
-0.1979262 0.26663718 -0.11802386 -0.31968918 0.21892767 -0.26460192 -0.1759759 0.10837999
00000000: 08c3 04be 55c5 4d3e 6246 56bd e378 2ebe
00000010: 08a9 4cbd f539 ba3d fe9b 1cbe 6ad9 743e
00000020: 7525 7abe 0e03 8ebe 847c 9d3e 42d1 2d3d
00000030: cbd6 89bd 1128 4dbe cd33 73be a290 843e
00000040: 997f ad3e fc55 843e 7ade 153e 175c 15bc
00000050: dfc8 bcbd 4a2c 663e 9ab5 853d ab07 33be
00000060: 2aad 4abe ab84 883e 7eb6 f1bd 4dae a3be
00000070: 932e 603e e779 87be 0733 34be 54f6 dd3d

bWhadResNetBlock.reinforce.1.conv.m f4 [1, 1, 1, 8]
1.4051759 8.752808 5.1276264 2.9285176 3.7777514 0.14289013 5.8008404 4.684521
00000000: cedc b33f 800b 0c41 8415 a440 d56c 3b40
00000010: aec6 7140 ca51 123e 7ca0 b940 99e7 9540

bWhadResNetBlock.reinforce.1.conv.s f4 [1, 1, 1, 8]
3.2097614 3.59462 7.2170095 5.5046597 3.8975587 0.8403618 7.367904 5.3597565
00000000: bb6c 4d40 410e 6640 bef1 e640 2c26 b040
00000010: 9a71 7940 f321 573f dfc5 eb40 2083 ab40

bWhadResNetBlock.reinforce.1.conv.conv.bias f4 [1, 8, 1]
4.0174084 1.0071576 -1.1766822 1.3865464 0.20404917 -0.86643547 -0.15125537 2.9108028
00000000: 9c8e 8040 8aea 803f 869d 96bf 5a7a b13f
00000010: 44f2 503e b7ce 5dbf b0e2 1abe 984a 3a40

bWhadResNetBlock.reinforce.1.conv.conv.module.weight f4 [4, 8, 1]
0.094979435 -0.03701261 -2.327088 -0.5276652 0.82364655 -1.047344 0.508568 -0.8317286
-0.08805551 0.6371103 0.058905378 0.7772909 0.069245435 0.42868042 0.8745712 -0.69809324
-2.3446498 -1.4704852 -1.2241906 -1.4196421 2.6769347 1.1323416 1.3453162 1.7806066
0.7952824 3.979073 0.5395363 -0.7178769 -1.3604728 -1.2836441 -1.462947 -0.1065537
00000000: 9484 c23d 899a 17bd 03ef 14c0 1115 07bf
00000010: 80da 523f 5e0f 86bf 8331 023f 2aec 54bf
00000020: 7256 b4bd a919 233f c446 713d 89fc 463f
00000030: 8dd0 8d3d 007c db3e e6e3 5f3f 3db6 32bf
00000040: be0e 16c0 dc38 bcbf 47b2 9cbf d5b6 b5bf
00000050: e652 2b40 92f0 903f 5233 ac3f ebea e33f
00000060: a197 4b3f 22a9 7e40 0d1f 0a3f c8c6 37bf
00000070: f923 aebf 734e a4bf d941 bbbf d438 dabd

bWhadResNetBlock.conv.0.m f4 [1, 1, 1, 8]
0.16230254 6.665867 3.8411593 3.3928032 1.1331766 2.15279 4.0031447 4.812261
00000000: a332 263e c84e d540 8ed5 7540 b023 5940
00000010: ee0b 913f 50c7 0940 c319 8040 0bfe 9940

bWhadResNetBlock.conv.0.s f4 [1, 1, 1, 8]
0.8668803 5.0059357 5.4456825 5.647794 2.0694048 3.1272821 5.281129 6.433096
00000000: deeb 5d3f a030 a040 0843 ae40 baba b440
00000010: 2171 0440 6425 4840 02ff a840 ecdb cd40

bWhadResNetBlock.conv.0.conv.bias f4 [1, 8, 1]
1.8917545 2.2946966 0.09403554 0.45432305 3.089402 -3.6884816 1.0048912 0.7058078
00000000: 0325 f23f 4fdc 1240 b595 c03d 089d e83e
00000010: c3b8 4540 1510 6cc0 46a0 803f d2af 343f

bWhadResNetBlock.conv.0.conv.module.weight f4 [4, 8, 1]
0.2653922 1.7923392 1.9091789 0.20442139 1.4054207 0.5217992 -1.0045863 0.8363032
-0.79064405 -1.0411941 0.0036985073 -0.30115548 -0.23143363 1.1290581 -0.2742101 0.27129784
-1.5617764 0.86893654 1.7443998 -0.030739246 -0.29140475 -1.5917481 -0.1546245 1.0955415
0.4504648 0.95102406 -2.3390267 0.4496532 -2.144959 -0.48804513 0.85920906 0.73437095
00000000: 7de1 873e 5f6b e53f f95f f43f d753 513e
00000010: d3e4 b33f a294 053f 4996 80bf f717 563f
00000020: a667 4abf d945 85bf a862 723b 0d31 9abe
00000030: f0fc 6cbe fa84 903f 4465 8cbe 8de7 8a3e
00000040: 4ae8 c7bf a072 5e3f 7e48 df3f dfd0 fbbc
00000050: 0133 95be 67be cbbf e355 1ebe b43a 8c3f
00000060: 52a3 e63e 5076 733f 9db2 15c0 f238 e63e
00000070: 0247 09c0 0de1 f9be 20f5 5b3f bcff 3b3f

bWlepResNetBlock.reinforce.0.conv.m f4 [1, 1, 1, 8]
0.044353053 1.5904343 0.48637694 0.57931614 -0.0011962772 1.0394996 0.63901937 0.55554366
00000000: 8cab 353d 5a93 cb3f 6606 f93e 104e 143f
00000010: 67cc 9cba 530e 853f c696 233f 1c38 0e3f

bWlepResNetBlock.reinforce.0.conv.s f4 [1, 1, 1, 8]
0.47828084 2.1622367 1.0107594 1.0022867 0.38163713 2.5054567 1.5890849 1.6496878
00000000: 3ae1 f43e 1662 0a40 9060 813f ee4a 803f
00000010: f165 c33e 6759 2040 2267 cb3f f828 d33f

bWlepResNetBlock.reinforce.0.conv.conv.bias f4 [1, 8, 1]
0.0 0.0 0.0 0.0 0.0 0.0 0.0 0.0
00000000: 0000 0000 0000 0000 0000 0000 0000 0000
00000010: 0000 0000 0000 0000 0000 0000 0000 0000

bWlepResNetBlock.reinforce.0.conv.conv.module.weight f4 [4, 8, 1]
-0.042021755 0.23881774 -0.31312495 0.20452815 0.3108172 -0.14361277 0.31011465 0.1601498
-0.074399635 -0.35089022 0.09679643 -0.15468635 0.20817782 0.08476625 0.2530946 0.12426872
-0.24522115 -0.32532775 -0.012765395 -0.3030603 -0.29663634 -0.27170822 -0.26210403 -0.21645837
-0.022004616 0.11649013 0.32946786 0.29203075 0.32681495 0.09498327 0.06513593 -0.07858187
00000000: 011f 2cbd a38c 743e ea51 a0be d46f 513e
00000010: 6f23 9f3e 3a0f 13be 59c7 9e3e 4ffe 233e
00000020: d65e 98bd e2a7 b3be 353d c63d 1966 1ebe
00000030: 912c 553e ed99 ad3d 9e95 813e 9980 fe3d
00000040: 411b 7bbe 5c91 a6be f325 51bc b82a 9bbe
00000050: b8e0 97be 571d 8bbe 8032 86be 43a7 5dbe
00000060: 0643 b4bc 6192 ee3d 03b0 a83e 0e85 953e
00000070: 4a54 a73e 9786 c23d fd65 853d 88ef a0bd

bWlepResNetBlock.reinforce.1.conv.m f4 [1, 1, 1, 8]
0.27184644 4.965993 2.2582042 1.870684 0.7181843 2.4141169 3.2183962 2.5264807
00000000: 752f 8b3e 6ae9 9e40 6b86 1040 9372 ef3f
00000010: edda 373f e480 1a40 34fa 4d40 dcb1 2140

bWlepResNetBlock.reinforce.1.conv.s f4 [1, 1, 1, 8]
0.8585134 3.8214076 4.1632633 3.2364378 2.2233737 6.1180735 4.255335 3.0060303
00000000: 89c7 5b3f f191 7440 7439 8540 cc21 4f40
00000010: c14b 0e40 42c7 c340 b42b 8840 cd62 4040

bWlepResNetBlock.reinforce.1.conv.conv.bias f4 [1, 8, 1]
3.0475988 -1.249863 1.486658 -0.044035103 -0.10076342 1.9772953 6.968235 1.5201302
00000000: dc0b 4340 83fb 9fbf cf4a be3f 275e 34bd
00000010: 0d5d cebd 0318 fd3f c8fb de40 a093 c23f

bWlepResNetBlock.reinforce.1.conv.conv.module.weight f4 [4, 8, 1]
-0.18515135 0.62479 0.5140945 0.86578155 -1.2475122 -1.515871 0.37736392 -1.7797679
0.27045664 -0.7265235 -0.05028417 -0.18409735 -0.10749961 0.30500418 0.029552452 1.0020268
-0.13432555 0.40129948 0.3628784 -0.23911129 -0.040034708 0.7989487 -0.51975036 0.6274635
0.020603625 1.8775383 1.3295361 1.9856051 0.52878636 -0.2704862 -1.8481693 0.39350557
00000000: 5198 3dbe 3df2 1f3f b29b 033f dca3 5d3f
00000010: 7bae 9fbf 1008 c2bf d835 c13e 6fcf e3bf
00000020: 4b79 8a3e 72fd 39bf c6f6 4dbd 0484 3cbe
00000030: c128 dcbd 8229 9c3e fc17 f23c 6a42 803f
00000040: a38c 09be 2077 cd3e 33cb b93e 97d9 74be
00000050: 6ffb 23bd e787 4c3f 5c0e 05bf 73a1 203f
00000060: efc8 a83c 2d53 f03f 3d2e aa3f 4f28 fe3f
00000070: 8b5e 073f 2b7d 8abe d090 ecbf 9079 c93e

bWlepResNetBlock.conv.0.m f4 [1, 1, 1, 8]
0.044353053 1.5904343 0.48637694 0.57931614 -0.0011962772 1.0394996 0.63901937 0.55554366
00000000: 8cab 353d 5a93 cb3f 6606 f93e 104e 143f
00000010: 67cc 9cba 530e 853f c696 233f 1c38 0e3f

bWlepResNetBlock.conv.0.s f4 [1, 1, 1, 8]
0.47828084 2.1622367 1.0107594 1.0022867 0.38163713 2.5054567 1.5890849 1.6496878
00000000: 3ae1 f43e 1662 0a40 9060 813f ee4a 803f
00000010: f165 c33e 6759 2040 2267 cb3f f828 d33f

bWlepResNetBlock.conv.0.conv.bias f4 [1, 8, 1]
-2.1532207 3.0161402 -0.67966515 -0.07495729 -1.5383213 0.15451004 1.2410113 1.4872988
00000000: 5ece 09c0 7108 4140 89fe 2dbf 3583 99bd
00000010: b6e7 c4bf e137 1e3e 75d9 9e3f cf5f be3f

bWlepResNetBlock.conv.0.conv.module.weight f4 [4, 8, 1]
-1.2347229 0.47467124 1.2747574 0.43703094 -0.0054782904 -1.7494216 -1.006877 -0.43886942
0.026134599 -0.5911892 0.43302798 0.13826106 -1.1744689 -0.88981026 -1.5802549 -2.3560154
0.33179718 0.44305235 0.98476446 3.4017184 -0.52637094 0.56474364 -1.4173969 -0.054450277
1.0071962 3.02373 0.6037113 -0.021521976 -0.1928779 -0.9420252 1.5126144 0.35439807
00000000: 660b 9ebf 1c08 f33e 402b a33f 85c2 df3e
00000010: 3b83 b3bb 0ced dfbf 58e1 80bf 7eb3 e0be
00000020: 3a18 d63c 2d58 17bf d8b5 dd3e 4f94 0d3e
00000030: ff54 96bf 9bca 63bf cb45 cabf f5c8 16c0
00000040: 52e1 a93e c2d7 e23e 8619 7c3f c1b5 5940
00000050: 3fc0 06bf 0a93 103f 436d b5bf 4107 5fbd
00000060: ceeb 803f cb84 4140 d38c 1a3f db4e b0bc
00000070: c981 45be 9028 71bf 599d c13f aa73 b53e

attention_tt.q_GBN.gamma f4 [8]
5.0660133 4.628537 1.1435357 0.4799701 -0.56669056 -9.362962 -2.499284 -0.41318765
00000000: c81c a240 fa1c 9440 615f 923f a4be f53e
00000010: a212 11bf b1ce 15c1 45f4 1fc0 558d d3be

attention_tt.q_GBN.bias f4 [8]
0.15941453 -2.0557745 -1.3893383 1.3476733 -2.4873543 0.7540476 2.9355502 0.55318356
00000000: 903d 233e cf91 03c0 d6d5 b1bf 8f80 ac3f
00000010: d030 1fc0 4309 413f 0ee0 3b40 709d 0d3f

attention_tt.q_GBN.m f4 [1, 1, 1, 8]
8.022162 2.1672537 2.2595613 4.986714 1.729213 0.16625306 2.5577698 6.9254484
00000000: c75a 0041 49b4 0a40 a79c 1040 2993 9f40
00000010: da56 dd3f 3e3e 2a3e 80b2 2340 469d dd40

attention_tt.q_GBN.s f4 [1, 1, 1, 8]
4.2129173 1.6745155 4.3402915 6.1584144 2.593082 0.9816754 3.8974345 6.5810075
00000000: 38d0 8640 8656 d63f abe3 8a40 bb11 c540
00000010: 0ef5 2540 144f 7b3f 916f 7940 9d97 d240

attention_tt.v_GBN.gamma f4 [8]
-1.4369847 0.94459945 1.179426 -0.66035795 0.27690402 2.3787506 1.3186941 0.96226686
00000000: 1def b7bf 45d1 713f 6ef7 963f 380d 29bf
00000010: 5dc6 8d3e 733d 1840 f8ca a83f 1f57 763f

attention_tt.v_GBN.bias f4 [8]
-1.229864 1.6772305 2.0815666 2.5417001 -1.5436816 0.9971219 1.4108602 2.6617134
00000000: 2f6c 9dbf 7daf d63f 6338 0540 37ab 2240
00000010: 5c97 c5bf 6143 7f3f 1197 b43f 8359 2a40

attention_tt.v_GBN.m f4 [1, 1, 1, 8]
7.0975947 0.49935248 4.1122923 3.8256307 2.3131173 4.483293 13.320143 4.902106
00000000: 7f1f e340 21ab ff3e e697 8340 22d7 7440
00000010: 1d0a 1440 2377 8f40 4e1f 5541 0dde 9c40

attention_tt.v_GBN.s f4 [1, 1, 1, 8]
4.42226 1.25439 4.6783514 6.1820235 5.4103785 4.458558 5.4376144 4.9558315
00000000: 2783 8d40 da8f a03f 0eb5 9540 23d3 c540
00000010: d221 ad40 82ac 8e40 f000 ae40 2c96 9e40
