analysis/weights/model_svb__kfolds_3__offset_2__seed_kfold-FvT-random-0__e8468d50-445e-46ce-94c5-460d24e55788.pkl (torch, 210528 bytes, 210 tensors)

inputEmbed.ancillaryEmbed.m f4 [1, 1, 1, 4]
286.20724 0.3354009 0.6815985 2022.4138
00000000: 871a 8f43 abb9 ab3e 3d7d 2e3f 3ecd fc44

inputEmbed.ancillaryEmbed.s f4 [1, 1, 1, 4]
75.49871 0.4370093 0.84035635 0.4925851
00000000: 57ff 9642 afbf df3e 9821 573f 1d34 fc3e

inputEmbed.ancillaryEmbed.conv.module.weight f4 [4, 4, 1]
-0.9024793 0.41955093 0.2288948 0.05121064 1.6082131 1.0863503 0.57405704 0.1940045
0.76987994 0.22247565 -0.07255384 -0.21156016 -0.021913841 0.04576158 0.11639756 0.057756457
00000000: e208 67bf 61cf d63e 6663 6a3e 40c2 513d
00000010: edd9 cd3f 870d 8b3f 67f5 123f 1ea9 463e
00000020: da16 453f a8d0 633e 1c97 94bd 3aa3 58be
00000030: a884 b3bc 7f70 3b3d d861 ee3d 0992 6c3d

inputEmbed.bJetEmbed.m f4 [1, 1, 1, 5]
4.0754147 -0.0074103214 0.7018302 2.227754 0.8439176
00000000: cc69 8240 48d2 f2bb 25ab 333f 8693 0e40
00000010: fc0a 583f

inputEmbed.bJetEmbed.s f4 [1, 1, 1, 5]
0.4195687 1.0329176 0.46068648 0.35019043 0.22914802
00000000: b5d1 d63e a536 843f 19df eb3e 294c b33e
00000010: c7a5 6a3e

inputEmbed.bJetEmbed.conv.bias f4 [1, 8, 1]
-0.9613672 0.97384435 -1.5379713 -1.3301826 2.389285 0.05942927 1.2567792 0.90117276
00000000: 291c 76bf dd4d 793f 3edc c4bf 6c43 aabf
00000010: 0cea 1840 1b6c 733d 24de a03f 42b3 663f

inputEmbed.bJetEmbed.conv.module.weight f4 [4, 5, 1]
-3.2119255 0.17154689 0.42788333 1.9744391 -0.3350697 0.6487361 0.02690237 0.759839
-1.0900996 2.8766055 1.8421243 0.20253628 -0.7546043 0.85325545 0.560948 3.142718
0.15208954 1.8545159 0.058829978 1.4785732
00000000: 3090 4dc0 fda9 2f3e 8613 db3e 6cba fc3f
00000010: 418e abbe 9213 263f 5c62 dc3c cf84 423f
00000020: 6288 8bbf 4e1a 3840 bbca eb3f ac65 4f3e
00000030: bf2d 41bf f36e 5a3f 4a9a 0f3f 4b22 4940
00000040: 5cbd 1b3e c760 ed3f b4f7 703d e341 bd3f

inputEmbed.bJetConv.m f4 [1, 1, 1, 8]
0.27648643 1.2149136 1.043012 0.61574703 1.9260824 1.3368603 1.5123647 0.9976774
00000000: a18f 8d3e 4a82 9b3f 6b81 853f 99a1 1d3f
00000010: de89 f63f 3d1e ab3f 2b95 c13f c967 7f3f

inputEmbed.bJetConv.s f4 [1, 1, 1, 8]
0.87408 1.9355426 1.8440641 1.3425187 2.145814 2.1916912 1.9858125 1.4979318
00000000: b5c3 5f3f dcbf f73f 4b0a ec3f a7d7 ab3f
00000010: 0455 0940 ab44 0c40 1b2f fe3f 3bbc bf3f

inputEmbed.bJetConv.conv.bias f4 [1, 8, 1]
-1.0786186 0.4497345 -0.30277953 -0.30716547 -0.320491 2.12482 2.1194088 1.6253825
00000000: 2d10 8abf 9a43 e63e eb05 9bbe cb44 9dbe
00000010: 6517 a4be 0dfd 0740 65a4 0740 890c d03f

inputEmbed.bJetConv.conv.module.weight f4 [4, 8, 1]
0.39781722 1.3861617 0.6946371 -0.2524556 0.347979 -0.3021999 -0.3763403 -4.281614
-0.50376534 1.7746766 0.14736383 1.8498377 -0.41019386 -1.7802843 1.0086484 0.018165687
0.87423074 -0.602598 1.137227 -1.1972542 -0.34886533 1.2769974 2.190497 -1.4749004
-0.591286 1.4172738 0.2071615 -2.6354592 -2.823521 -0.40309802 -1.1521683 -1.6095971
00000000: b3ae cb3e bf6d b13f bdd3 313f dc41 81be
00000010: 4e2a b23e f2b9 9abe adaf c0be fb02 89c0
00000020: c4f6 00bf 9a28 e33f 8be6 163e 7bc7 ec3f
00000030: ee04 d2be 5be0 e3bf 641b 813f 35d0 943c
00000040: 96cd 5f3f dd43 1abf a890 913f a03f 99bf
00000050: 7a9e b2be a774 a33f 1a31 0c40 89c9 bcbf
00000060: 855e 17bf 3a69 b53f 2522 543e 5dab 28c0
00000070: 91b4 34c0 dd62 cebe 407a 93bf 4707 cebf

inputEmbed.nonbJetEmbed.m f4 [1, 1, 1, 4]
1.6161416 -0.0077202204 0.7852614 1.1574929
00000000: badd ce3f e7f9 fcbb e406 493f ba28 943f

inputEmbed.nonbJetEmbed.s f4 [1, 1, 1, 4]
0.0885654 1.1814905 0.65802664 0.12107355
00000000: c761 b53d 153b 973f 6f74 283f 69f5 f73d

inputEmbed.nonbJetEmbed.conv.bias f4 [1, 8, 1]
1.7734491 -0.37336767 -0.31605098 -1.0066764 0.23166974 0.45442888 0.85256016 0.41547015
00000000: 6100 e33f 0c2a bfbe 6fd1 a1be c6da 80bf
00000010: d53a 6d3e e7aa e83e 6241 5a3f 81b8 d43e

inputEmbed.nonbJetEmbed.conv.module.weight f4 [4, 4, 1]
-0.44792315 -0.15946154 -2.5537837 -1.9606272 -2.6863182 0.15841071 0.69784397 -0.56736505
-3.3037145 0.035225827 0.7402265 1.8428658 -1.6408277 -0.29841885 -2.3098958 1.7029225
00000000: 2f56 e5be e349 23be 3171 23c0 d5f5 fabf
00000010: a3ec 2bc0 6b36 223e e7a5 323f d63e 11bf
00000020: 0f70 53c0 f548 103d 7c7f 3d3f 07e3 eb3f
00000030: a406 d2bf 5bca 98be 55d5 13c0 5df9 d93f

inputEmbed.nonbJetConv.m f4 [1, 1, 1, 8]
1.9528214 1.2811589 0.601598 0.23426172 1.0748014 1.4376667 1.3697238 0.89615935
00000000: 0df6 f93f 04fd a33f 5402 1a3f 4ee2 6f3e
00000010: 1893 893f 7605 b83f 1c53 af3f b36a 653f

inputEmbed.nonbJetConv.s f4 [1, 1, 1, 8]
2.0736203 2.068624 1.2018093 0.68936354 2.1075282 2.1744432 1.6935363 1.7930818
00000000: 32b6 0440 5664 0440 e3d4 993f 217a 303f
00000010: bee1 0640 142a 0b40 ccc5 d83f b483 e53f

inputEmbed.nonbJetConv.conv.bias f4 [1, 8, 1]
1.0228074 -0.28890425 -0.50743014 -0.15136492 -0.0075750696 -0.6741004 0.7939155 -1.9604683
00000000: 5aeb 823f 42eb 93be f1e6 01bf 68ff 1abe
00000010: 4a38 f8bb d891 2cbf 0c3e 4b3f a0f0 fabf

inputEmbed.nonbJetConv.conv.module.weight f4 [4, 8, 1]
0.5943107 -2.11932 -1.8451278 0.3186525 -1.1002048 1.9069575 0.20628609 -1.8118322
1.8622872 0.16569568 0.19609497 1.7457436 -2.469461 -0.9748149 -1.3899876 -0.8389742
-0.87274325 0.5912154 2.5806346 0.8390081 1.3344903 1.2636877 -1.8899981 -0.9651502
0.7461258 1.1209968 -2.9655159 -0.11552982 -0.188081 2.9972088 1.2966514 0.18835683
00000000: bf24 183f f0a2 07c0 262d ecbf 6c26 a33e
00000010: 83d3 8cbf 2f17 f43f a93c 533e 1eea e7bf
00000020: 6d5f ee3f 21ac 293e 1fcd 483e 8774 df3f
00000030: a60b 1ec0 788d 79bf 1deb b1bf 03c7 56bf
00000040: 1a6c 5fbf e459 173f 1e29 2540 3cc9 563f
00000050: 94d0 aa3f 85c0 a13f 75eb f1bf 1514 77bf
00000060: 1a02 3f3f d37c 8f3f 03cb 3dc0 e69a ecbd
00000070: 4e98 40be 45d2 3f40 acf8 a53f 9de0 403e

inputEmbed.lepEmbed.m f4 [1, 1, 1, 6]
60.47426 -0.0071637854 0.00039520484 0.061156105 0.42148858 0.5785113
00000000: a4e5 7142 30be eabb 7f33 cf39 d37e 7a3d
00000010: 5acd d73e 5119 143f

inputEmbed.lepEmbed.s f4 [1, 1, 1, 6]
29.724379 1.0847898 1.8181639 0.052200764 0.49379745 0.49379745
00000000: 87cb ed41 64da 8a3f 98b9 e83f 78d0 553d
00000010: 05d3 fc3e 05d3 fc3e

inputEmbed.lepEmbed.conv.bias f4 [1, 8, 1]
-0.2186161 0.5365403 0.87885606 -2.3277664 -0.7808191 -1.1394944 0.5842245 -2.4433053
00000000: e6dc 5fbe b55a 093f b6fc 603f 20fa 14c0
00000010: c3e3 47bf f4da 91bf bd8f 153f 1d5f 1cc0

inputEmbed.lepEmbed.conv.module.weight f4 [4, 6, 1]
-1.8433841 0.9310501 0.07790473 1.0830452 -1.5341886 0.7826553 -3.0722277 0.98023766
-0.6993472 -0.35219717 0.1594362 -0.44609892 3.4954665 1.4654515 -0.4183829 0.41103005
-0.14916064 -0.07683326 -0.16470121 -3.5636153 0.2084546 -0.12483349 -0.033203006 -0.056733523
00000000: 03f4 ebbf 4d59 6e3f 848c 9f3d 3aa1 8a3f
00000010: 4b60 c4bf 195c 483f 619f 44c0 dbf0 7a3f
00000020: 6b08 33bf 3053 b4be 3e43 233e 1467 e4be
00000030: b9b5 5f40 ea93 bb3f 4936 d6be 8872 d23e
00000040: 91bd 18be c25a 9dbd 6fa7 28be 4612 64c0
00000050: 1f75 553e b3a8 ffbd e0ff 07bd 6961 68bd

inputEmbed.lepConv.m f4 [1, 1, 1, 8]
1.6960003 1.5172474 1.6603205 0.60271317 1.518472 0.8024411 1.4634784 0.5714431
00000000: 8a16 d93f 2a35 c23f 6285 d43f 694b 1a3f
00000010: 4a5d c23f c86c 4d3f 4353 bb3f 184a 123f

inputEmbed.lepConv.s f4 [1, 1, 1, 8]
2.0199485 1.7661865 2.9603806 1.4438845 2.2678945 2.2135088 1.8304155 1.4025388
00000000: d646 0140 6612 e23f e076 3d40 35d1 b83f
00000010: 2f25 1140 21aa 0d40 0e4b ea3f 6486 b33f

inputEmbed.lepConv.conv.bias f4 [1, 8, 1]
-0.9419092 -0.5772724 0.28073144 1.0119467 0.27683723 -0.3156146 -1.3774109 1.6178691
00000000: f620 71bf 20c8 13bf 08bc 8f3e 7887 813f
00000010: 9cbd 8d3e 3d98 a1be 004f b0bf 5616 cf3f

inputEmbed.lepConv.conv.module.weight f4 [4, 8, 1]
-0.23899508 -0.7997313 0.8997081 0.43559143 -0.06710871 0.5519647 -1.5587536 -0.3109799
-0.051285166 -0.29460666 1.5493468 1.1569238 0.528524 0.40373346 0.5153658 -0.6953254
-0.68145573 -1.6760406 1.5202913 -0.5594832 0.78712267 -0.35408467 -0.8785155 0.18377516
1.0293837 -0.62207323 -2.2094438 -1.9266827 0.02968642 -0.62901306 -0.5771583 -1.990922
00000000: 20bb 74be 31bb 4cbf 4553 663f d705 df3e
00000010: 4b70 89bd 8f4d 0d3f 3d85 c7bf c238 9fbe
00000020: 6510 52bd afd6 96be ff50 c63f 1416 943f
00000030: 594d 073f 27b6 ce3e 03ef 033f d800 32bf
00000040: e273 2ebf 8088 d6bf e898 c23f 4a3a 0fbf
00000050: df80 493f 964a b5be 64e6 60bf 8e2f 3c3e
00000060: d8c2 833f 3140 1fbf 8767 0dc0 8a9d f6bf
00000070: ef30 f33c 0007 21bf a5c0 13bf 88d6 febf

inputEmbed.nuEmbed.m f4 [1, 1, 1, 2]
65.62736 0.014179264
00000000: 3541 8342 2550 683c

inputEmbed.nuEmbed.s f4 [1, 1, 1, 2]
37.902515 1.7966348
00000000: 2d9c 1742 21f8 e53f

inputEmbed.nuEmbed.conv.bias f4 [1, 8, 1]
1.1250799 -0.9323027 0.13930283 0.8080604 -1.9234202 0.22594956 -0.009788187 0.7841371
00000000: 9e02 903f 64ab 6ebf 67a5 0e3e 0cdd 4e3f
00000010: a232 f6bf 525f 673e a25e 20bc 36bd 483f

inputEmbed.nuEmbed.conv.module.weight f4 [4, 2, 1]
-1.0056373 -0.006167479 0.9023771 2.0530548 -2.3568664 -0.14184554 2.7351825 0.13219781
00000000: b9b8 80bf 9018 cabb 3002 673f 4065 0340
00000010: e6d6 16c0 f53f 11be 3b0d 2f40 dd5e 073e

inputEmbed.nuConv.m f4 [1, 1, 1, 8]
1.0714837 0.4682303 0.9094523 1.3652097 -0.14856538 0.96973544 0.8226601 1.5365901
00000000: 6126 893f e2bb ef3e ded1 683f 31bf ae3f
00000010: 8621 18be 9540 783f da99 523f fcae c43f

inputEmbed.nuConv.s f4 [1, 1, 1, 8]
0.84662807 1.0287137 1.2460659 2.3124726 0.30003637 1.4660826 1.7930019 1.6981491
00000000: 9ebc 583f e4ac 833f 167f 9f3f 8dff 1340
00000010: 5e9e 993e 98a8 bb3f 1681 e53f f35c d93f

inputEmbed.nuConv.conv.bias f4 [1, 8, 1]
-2.9486146 -0.0021648763 -1.2450236 -3.800056 0.26962522 1.1680198 0.25001878 -1.3338337
00000000: 1ab6 3cc0 99e0 0dbb ef5c 9fbf 1e34 73c0
00000010: 510c 8a3e ac81 953f 7602 803e 10bb aabf

inputEmbed.nuConv.conv.module.weight f4 [4, 8, 1]
-0.901522 0.5398139 -0.9580179 -0.20676403 -0.8100915 -0.15137647 -0.5131009 -1.0283852
-0.5125189 0.42609176 -0.1065678 1.502328 0.4586068 0.19886762 1.0308007 -0.58081794
0.71533775 0.2675665 0.5527394 -0.6558525 0.32456082 0.298413 -0.26368085 0.36395043
-0.03079054 0.4803325 -0.62592316 -1.2802448 -1.0527401 0.33907637 -1.3026016 -0.13650963
00000000: 25ca 66bf 3e31 0a3f a940 75bf f3b9 53be
00000010: 2862 4fbf 6f02 1bbe 955a 03bf 20a2 83bf
00000020: 7034 03bf b328 da3e 3840 dabd 494c c03f
00000030: 83ce ea3e f4a3 4b3e 47f1 833f 7cb0 14bf
00000040: 6020 373f 7afe 883e 5480 0d3f f3e5 27bf
00000050: d62c a63e 97c9 983e 2d01 87be b657 ba3e
00000060: 713c fcbc 24ee f53e 803c 20bf 10df a3bf
00000070: 30c0 86bf 6b9b ad3e a6bb a6bf 2ec9 0bbe

inputEmbed.bWhadEmbed.m f4 [1, 1, 1, 4]
86.98 -0.014241227 -0.0034335162 233.04022
00000000: c3f5 ad42 0954 69bc d804 61bb 4c0a 6943

inputEmbed.bWhadEmbed.s f4 [1, 1, 1, 4]
46.6974 1.7110375 1.8116916 113.50059
00000000: 23ca 3a42 4703 db3f 83e5 e73f 4d00 e342

inputEmbed.bWhadEmbed.conv.bias f4 [1, 8, 1]
0.33510333 -2.506682 0.5585112 -2.4492936 0.71880877 1.5797017 1.592039 -0.7386379
00000000: aa92 ab3e 7a6d 20c0 97fa 0e3f 3ac1 1cc0
00000010: da03 383f aa33 ca3f efc7 cb3f 6017 3dbf

inputEmbed.bWhadEmbed.conv.module.weight f4 [4, 4, 1]
2.9634266 0.13381352 -0.12550312 -0.85322666 -2.602501 -0.94990486 0.24393064 -0.3571168
1.1176537 -0.25491253 -0.021163823 1.7343338 -0.4469925 -0.17048389 -0.19120939 5.693291
00000000: c8a8 3d40 6906 093e e483 00be 106d 5abf
00000010: 608f 26c0 f72c 73bf f4c8 793e 03d8 b6be
00000020: 470f 8f3f e583 82be c15f adbc a6fe dd3f
00000030: 33dc e4be 5493 2ebe 65cc 43be 712f b640

inputEmbed.bWhadConv.m f4 [1, 1, 1, 8]
1.0360001 0.24064827 1.0920603 1.3506708 1.3646839 1.9393845 1.6390502 1.5859649
00000000: a79b 843f 806c 763e a2c8 8b3f c8e2 ac3f
00000010: f6ad ae3f c03d f83f 66cc d13f e600 cb3f

inputEmbed.bWhadConv.s f4 [1, 1, 1, 8]
1.9611245 0.87454396 1.9766346 3.8181999 1.7664926 2.4584196 1.5153716 1.9172966
00000000: 2106 fb3f 1de2 5f3f 5d02 fd3f 635d 7440
00000010: 6e1c e23f bf56 1d40 b2f7 c13f fa69 f53f

inputEmbed.bWhadConv.conv.bias f4 [1, 8, 1]
0.88936275 1.7767124 -0.5174281 2.024717 -0.9616472 -1.2849336 -1.0389324 1.6890311
00000000: 47ad 633f 506b e33f 2b76 04bf f794 0140
00000010: 832e 76bf b478 a4bf bdfb 84bf 2c32 d83f

inputEmbed.bWhadConv.conv.module.weight f4 [4, 8, 1]
0.6052235 -0.14888431 0.3795361 0.3006258 0.5685372 0.31377837 -0.60095626 0.05800791
-0.65836114 0.2419213 -0.48741323 -0.5488988 -0.6314369 -0.08038437 0.14980003 0.24733531
-0.8320002 -0.0425014 -0.2799169 -1.0265287 0.561478 -0.84503174 -0.742662 -3.018529
-0.14240305 0.07578463 -0.16030198 0.21611194 0.30343065 -1.2475903 0.9614181 0.5196128
00000000: edef 1a3f 2175 18be 8e52 c23e a0eb 993e
00000010: a78b 113f 8fa7 a03e 45d8 19bf b499 6d3d
00000020: 5b8a 28bf 38ba 773e 3a8e f9be a284 0cbf
00000030: d9a5 21bf 90a0 a4bd 2e65 193e 7845 7d3e
00000040: f7fd 54bf f315 2ebd 4551 8fbe 4b65 83bf
00000050: 06bd 0f3f 0054 58bf 191f 3ebf 942f 41c0
00000060: 1bd2 11be f934 9b3d 3426 24be 734c 5d3e
00000070: 435b 9b3e 0ab1 9fbf 7f1f 763f 5805 053f

inputEmbed.bWlepEmbed.m f4 [1, 1, 1, 4]
72.940865 -0.011049454 0.00020258072 113.498695
00000000: b9e1 9142 c508 35bc d96b 5439 55ff e242

inputEmbed.bWlepEmbed.s f4 [1, 1, 1, 4]
40.223404 1.5460792 1.8176883 53.374874
00000000: c4e4 2042 ece5 c53f 03aa e83f df7f 5542

inputEmbed.bWlepEmbed.conv.bias f4 [1, 8, 1]
-0.11135059 -0.07809417 -0.4564385 3.8279142 -0.41391304 0.9859145 2.0987234 0.9774564
00000000: c70b e4bd d6ef 9fbd 4fb2 e9be 8cfc 7440
00000010: 69ec d3be e564 7c3f 7c51 0640 953a 7a3f

inputEmbed.bWlepEmbed.conv.module.weight f4 [4, 4, 1]
1.2538035 0.0076286187 -0.36923283 2.7209194 -0.5113908 -0.12794305 0.19026661 2.7997613
2.3719895 0.6083434 -0.013821952 0.007345551 0.39069736 -0.22371078 -0.20269653 -3.6575644
00000000: a27c a03f 7ef9 f93b 160c bdbe 8b23 2e40
00000010: 82ea 02bf 8103 03be 40d5 423e 4a2f 3340
00000020: adce 1740 65bc 1b3f 7875 62bc f3b2 f03b
00000030: 7c09 c83e 7014 65be ae8f 4fbe 8915 6ac0

inputEmbed.bWlepConv.m f4 [1, 1, 1, 8]
1.0515711 0.9379512 0.6658555 3.8605754 0.7952609 1.4026388 2.2285705 1.4958816
00000000: e299 863f 921d 703f 8275 2a3f ab13 7740
00000010: 3896 4b3f ab89 b33f e6a0 0e40 0c79 bf3f

inputEmbed.bWlepConv.s f4 [1, 1, 1, 8]
2.332687 2.1599042 1.651836 2.485476 1.2706525 1.6032743 2.0212076 2.7447922
00000000: be4a 1540 df3b 0a40 5d6f d33f 0a12 1f40
00000010: bea4 a23f 1838 cd3f 775b 0140 adaa 2f40

inputEmbed.bWlepConv.conv.bias f4 [1, 8, 1]
0.5050676 -2.3707945 5.921908 1.5385976 0.4548873 3.3979352 -0.60957944 -1.3452569
00000000: 1c4c 013f 19bb 17c0 4580 bd40 c4f0 c43f
00000010: fde6 e83e c577 5940 660d 1cbf 6131 acbf

inputEmbed.bWlepConv.conv.module.weight f4 [4, 8, 1]
1.5675701 0.43317404 -0.030427746 -5.623564 -0.10974439 -0.41282097 -0.5906155 0.45622966
-1.814788 0.08367203 -0.2381899 0.8720031 0.293953 2.4089396 0.050331566 0.36460993
-1.4656436 -0.24154049 -1.728528 -1.1246376 -0.18324699 -1.0391407 0.95373213 0.16987947
-0.57280755 -0.7039909 1.729717 -3.3520489 -2.317054 -2.122238 -0.7888823 -0.33136392
00000000: 23a6 c83f fdc8 dd3e 9c43 f9bc 3cf4 b3c0
00000010: abc1 e0bd 455d d3be 9432 17bf ef96 e93e
00000020: f94a e8bf 3e5c ab3d 0ee8 73be 983b 5f3f
00000030: 0281 963e 112c 1a40 7928 4e3d 27ae ba3e
00000040: 369a bbbf 6456 77be 6840 ddbf 20f4 8fbf
00000050: 19a5 3bbe 9002 85bf ca27 743f e2f4 2d3e
00000060: 84a3 12bf bf38 34bf 5e67 dd3f f887 56c0
00000070: 9d4a 14c0 bfd2 07c0 31f4 49bf 88a8 a9be

inputEmbed.MdRttEmbed.m f4 [1, 1, 1, 3]
5.0203404 2.323576 0.5
00000000: a1a6 a040 78b5 1440 0000 003f

inputEmbed.MdRttEmbed.s f4 [1, 1, 1, 3]
0.4886833 0.823929 0.5
00000000: b334 fa3e 03ed 523f 0000 003f

inputEmbed.MdRttEmbed.conv.bias f4 [1, 8, 1]
-0.014578791 -2.5856655 -1.213553 -0.68539 -0.073726796 0.52766126 1.9342124 0.11452706
00000000: e2db 6ebc 8b7b 25c0 b455 9bbf b875 2fbf
00000010: 13fe 96bd cf14 073f 4694 f73f 2a8d ea3d

inputEmbed.MdRttEmbed.conv.module.weight f4 [4, 3, 1]
8.442761 0.22030945 1.6340715 -2.7624705 -1.0613185 -1.6327709 1.1729534 -1.951324
0.1926247 -1.7123568 -2.8290207 1.8327808
00000000: 8d15 0741 cd98 613e 4129 d13f 51cc 30c0
00000010: 49d9 87bf a3fe d0bf 5623 963f fcc4 f9bf
00000020: 693f 453e 822e dbbf ad0e 35c0 9098 ea3f

inputEmbed.MdRttConv.m f4 [1, 1, 1, 8]
2.6628122 0.23416772 0.02775428 1.3897574 2.8194983 1.2927945 1.8681943 1.757941
00000000: 846b 2a40 aac9 6f3e f25c e33c 92e3 b13f
00000010: a972 3440 4a7a a53f fe20 ef3f 3604 e13f

inputEmbed.MdRttConv.s f4 [1, 1, 1, 8]
4.425679 1.0964696 0.6084726 2.497972 4.583473 1.9539883 1.3288202 2.6817143
00000000: 2a9f 8d40 1e59 8c3f dcc4 1b3f c6de 1f40
00000010: d0ab 9240 4a1c fa3f c816 aa3f 35a1 2b40

inputEmbed.MdRttConv.conv.bias f4 [1, 8, 1]
0.011674686 0.0030292396 0.07190362 0.04432117 -0.06702107 0.015181466 0.048644356 0.029376725
00000000: 2f47 3f3c 3586 463b 3542 933d 1d8a 353d
00000010: 5842 89bd afbb 783c 4e3f 473d 75a7 f03c

inputEmbed.MdRttConv.conv.module.weight f4 [4, 8, 1]
-4.026552 -0.4476594 0.5891642 -0.19029558 -1.6094816 -0.45449927 0.8374926 1.0129312
0.30650383 -0.2429157 -4.3037353 -1.0781327 0.89802015 0.092200965 1.9155407 -0.19499779
-2.0620706 1.3042963 0.57026994 3.0509822 -0.5901892 -0.4865607 0.6157505 0.81736624
-3.598766 0.3414973 -0.47270006 -0.092409454 0.09624507 -2.7660582 -0.4866831 -1.658842
00000000: 84d9 80c0 9d33 e5be 77d3 163f d8dc 42be
00000010: 7e03 cebf 21b4 e8be ea65 563f bba7 813f
00000020: 12ee 9c3e e5be 78be 33b8 89c0 4100 8abf
00000030: a6e4 653f dcd3 bc3d 7030 f53f 80ad 47be
00000040: f7f8 03c0 2ef3 a63f 36fd 113f 4b43 4340
00000050: a416 17bf 7c1e f9be d3a1 1d3f ea3e 513f
00000060: 2f52 66c0 bcd8 ae3e be05 f2be 2b41 bdbd
00000070: 231c c53d 1907 31c0 872e f9be ef54 d4bf

inputEmbed.MdREmbed.m f4 [1, 1, 1, 4]
4.8552675 2.0987434 0.3333379 0.3333379
00000000: 5a5e 9b40 d051 0640 44ab aa3e 44ab aa3e

inputEmbed.MdREmbed.s f4 [1, 1, 1, 4]
0.52581716 0.7956139 0.4714061 0.4714061
00000000: f49b 063f 5aad 4b3f 245c f13e 245c f13e

inputEmbed.MdREmbed.conv.bias f4 [1, 8, 1]
1.7454096 -1.1391484 0.47783855 0.111563124 0.6179282 -0.047626432 -1.0782425 -2.3226163
00000000: 9569 df3f 9dcf 91bf 41a7 f43e 357b e43d
00000010: 8b30 1e3f ef13 43bd da03 8abf bfa5 14c0

inputEmbed.MdREmbed.conv.module.weight f4 [4, 4, 1]
-0.75024223 0.79768884 -2.255324 -1.3857851 -1.3236744 -2.3729768 1.0561982 1.0424957
1.5441769 -2.0033789 -0.87228423 -1.212356 3.0180926 0.7844636 -0.985882 -0.7546043
00000000: e00f 40bf 5635 4c3f 3a57 10c0 6861 b1bf
00000010: 2a6e a9bf dade 17c0 8131 873f 8070 853f
00000020: 97a7 c53f 5c37 00c0 054e 5fbf 7b2e 9bbf
00000030: 6e28 4140 9bd2 483f c362 7cbf bf2d 41bf

inputEmbed.MdRConv.m f4 [1, 1, 1, 8]
2.9469218 0.6024885 0.9916749 0.99540025 1.9508502 1.0772663 0.35038528 0.07866011
00000000: 5e9a 3c40 b03c 1a3f 68de 7d3f 8dd2 7e3f
00000010: 76b5 f93f dde3 893f b365 b33e 8d18 a13d

inputEmbed.MdRConv.s f4 [1, 1, 1, 8]
2.175488 1.4301028 1.2139171 1.9397959 3.0796227 2.137073 1.0473073 0.76143175
00000000: 323b 0b40 9c0d b73f a361 9b3f 3b4b f83f
00000010: 8a18 4540 cec5 0840 2a0e 863f 31ed 423f

inputEmbed.MdRConv.conv.bias f4 [1, 8, 1]
-1.1399946 -1.6050967 0.9671624 -0.6720374 -1.5414444 -0.57189894 -1.0009854 -0.53959495
00000000: 58eb 91bf cf73 cdbf f497 773f a50a 2cbf
00000010: 0d4e c5bf f867 12bf 4a20 80bf e522 0abf

inputEmbed.MdRConv.conv.module.weight f4 [4, 8, 1]
-1.3118956 -1.3863084 0.85288566 -1.3732101 0.62474984 -1.5434636 1.9628614 -3.3696487
2.2109537 -0.8028251 -1.6528858 0.17648765 -1.0977031 -0.25377512 -0.96640474 0.9494143
1.1180538 -0.9876127 0.43493584 4.296223 -2.1619384 0.35115853 0.6160555 3.972871
-0.25312626 -1.3104565 -0.71916765 0.6556973 -0.14327376 -0.13587952 -0.5865907 1.0087018
00000000: 32ec a7bf 8e72 b1bf b756 5a3f 59c5 afbf
00000010: 9bef 1f3f 3790 c5bf 0b3f fb3f 53a8 57c0
00000020: 4480 0d40 f285 4dbf c391 d3bf 2eb9 343e
00000030: 8981 8cbf d0ee 81be 4d66 77bf d10c 733f
00000040: 631c 8f3f 30d4 7cbf e9af de3e a97a 8940
00000050: 335d 0ac0 0dcb b33e d0b5 1d3f 8543 7e40
00000060: c499 81be 0abd a7bf 5f1b 38bf c7db 273f
00000070: 5bb6 12be 0024 0bbe cf2a 16bf 241d 813f

inputEmbed.bbDiJetEmbed.m f4 [1, 1, 1, 4]
4.5167184 -0.009420339 2.105057 4.579653
00000000: f588 9040 c457 1abc 41b9 0640 848c 9240

inputEmbed.bbDiJetEmbed.s f4 [1, 1, 1, 4]
0.38092458 1.1868266 0.8058449 0.26475298
00000000: 8c08 c33e efe9 973f da4b 4e3f b48d 873e

inputEmbed.bbDiJetEmbed.conv.bias f4 [1, 8, 1]
-2.0742483 -0.6157724 0.7774023 -1.0686449 1.5848556 0.6937632 0.49140808 -2.79513
00000000: 7cc0 04c0 43a3 1dbf d603 473f 5bc9 88bf
00000010: 8cdc ca3f 779a 313f d799 fb3e 69e3 32c0

inputEmbed.bbDiJetEmbed.conv.module.weight f4 [4, 4, 1]
2.2863312 -0.12816778 -0.806379 -0.017018804 0.92958826 -0.15079561 0.98711854 2.5355663
1.3416637 0.09996402 -2.4565067 0.4460455 0.40948775 -0.019038007 0.017254233 -3.5565255
00000000: 4053 1240 6a3e 03be db6e 4ebf 056b 8bbc
00000010: 7ff9 6d3f 2a6a 1abe cdb3 7c3f b846 2240
00000020: a3bb ab3f f0b9 cc3d 6837 1dc0 1360 e43e
00000030: 61a8 d13e 98f5 9bbc c058 8d3c 1d9e 63c0

inputEmbed.nonbDiJetEmbed.m f4 [1, 1, 1, 4]
4.313173 -0.011044603 1.5742176 4.6721396
00000000: 8305 8a40 6cf4 34bc f67f c93f 2b82 9540

inputEmbed.nonbDiJetEmbed.s f4 [1, 1, 1, 4]
0.64188176 1.4768962 0.9071724 0.57211685
00000000: 5d52 243f ef0a bd3f 733c 683f 4076 123f

inputEmbed.nonbDiJetEmbed.conv.bias f4 [1, 8, 1]
-1.5070729 0.88714415 -0.74034363 -0.29307687 1.1964498 -0.64606 1.3333784 0.23498206
00000000: c4e7 c0bf e11b 633f 2987 3dbf 2c0e 96be
00000010: 4425 993f 3064 25bf 25ac aa3f 239f 703e

inputEmbed.nonbDiJetEmbed.conv.module.weight f4 [4, 4, 1]
0.98382026 -0.06437792 0.17166048 -2.9332001 0.12477153 -0.050836142 -0.05078867 -3.0401707
-1.8625023 0.009577058 0.16185853 -1.2861197 -2.610801 -0.3760666 0.004168804 1.029484
00000000: a5db 7b3f 92d8 83bd c4c7 2f3e 8db9 3bc0
00000010: 3788 ff3d 8f39 50bd c807 50bd 2892 42c0
00000020: 7a66 eebf 18e9 1c3c 3ebe 253e 929f a4bf
00000030: 5d17 27c0 cd8b c0be 769a 883b 22c6 833f

inputEmbed.bbDiJetConv.m f4 [1, 1, 1, 8]
0.0 0.0 0.0 0.0 0.0 0.0 0.0 0.0
00000000: 0000 0000 0000 0000 0000 0000 0000 0000
00000010: 0000 0000 0000 0000 0000 0000 0000 0000

inputEmbed.bbDiJetConv.s f4 [1, 1, 1, 8]
1.0 1.0 1.0 1.0 1.0 1.0 1.0 1.0
00000000: 0000 803f 0000 803f 0000 803f 0000 803f
00000010: 0000 803f 0000 803f 0000 803f 0000 803f

inputEmbed.bbDiJetConv.conv.bias f4 [1, 8, 1]
0.0 0.0 0.0 0.0 0.0 0.0 0.0 0.0
00000000: 0000 0000 0000 0000 0000 0000 0000 0000
00000010: 0000 0000 0000 0000 0000 0000 0000 0000

inputEmbed.bbDiJetConv.conv.module.weight f4 [4, 8, 1]
-0.17292346 0.26152802 -0.281855 0.33644664 -0.12532218 0.13296096 0.21564229 0.20213501
0.08143222 -0.18686998 -0.054251213 0.019810747 0.326365 0.04742806 -0.31344122 -0.1665206
-0.30184168 -0.06087505 0.06201428 0.19356011 0.21765323 0.01891913 0.23164797 -0.090593934
-0.04048917 -0.07198652 -0.3173434 0.31458437 0.3289599 -0.2572649 0.13250986 -0.047980897
00000000: d912 31be 00e7 853e 4c4f 90be bc42 ac3e
00000010: 7554 00be eb26 083e 55d1 5c3e 7bfc 4e3e
00000020: f0c5 a63d d85a 3fbe 8536 5ebd 264a a23c
00000030: 5019 a73e ed43 423d 5e7b a0be 6084 2abe
00000040: fe8a 9abe 1e58 79bd b002 7e3d 9f34 463e
00000050: 7de0 5e3e 4bfc 9a3c 2035 6d3e 5089 b9bd
00000060: f9d7 25bd ab6d 93bd d67a a2be 3411 a13e
00000070: 6f6d a83e 3ab8 83be aab0 073e 9e87 44bd

inputEmbed.nonbDiJetConv.m f4 [1, 1, 1, 8]
0.0 0.0 0.0 0.0 0.0 0.0 0.0 0.0
00000000: 0000 0000 0000 0000 0000 0000 0000 0000
00000010: 0000 0000 0000 0000 0000 0000 0000 0000

inputEmbed.nonbDiJetConv.s f4 [1, 1, 1, 8]
1.0 1.0 1.0 1.0 1.0 1.0 1.0 1.0
00000000: 0000 803f 0000 803f 0000 803f 0000 803f
00000010: 0000 803f 0000 803f 0000 803f 0000 803f

inputEmbed.nonbDiJetConv.conv.bias f4 [1, 8, 1]
0.0 0.0 0.0 0.0 0.0 0.0 0.0 0.0
00000000: 0000 0000 0000 0000 0000 0000 0000 0000
00000010: 0000 0000 0000 0000 0000 0000 0000 0000

inputEmbed.nonbDiJetConv.conv.module.weight f4 [4, 8, 1]
-0.101331726 0.020451 0.20321111 0.18430993 -0.12101679 -0.24076201 0.31839713 -0.22528198
0.13051075 0.1415671 0.2262541 -0.2417963 -0.29657233 0.14176603 0.20341654 0.033397835
-0.19480956 -0.34313548 -0.27733836 -0.2604865 -0.047860023 0.14915074 -0.0087683145 0.2727276
-0.31583574 0.02589456 0.25656882 0.31131816 0.19939029 0.100178294 -0.3491034 -0.3334932
00000000: 0287 cfbd db88 a73c 9316 503e bebb 3c3e
00000010: a7d7 f7bd 518a 76be f304 a33e 52b0 66be
00000020: 9ca4 053e f7f6 103e 28af 673e 7399 77be
00000030: 54d8 97be 1d2b 113e 6d4c 503e 2bcc 083d
00000040: 287c 47be 74af afbe 4bff 8dbe 7d5e 85be
00000050: df08 44bd f9ba 183e faa8 0fbc f4a2 8b3e
00000060: 39b5 a1be d420 d43c fd5c 833e 1865 9f3e
00000070: f82c 4c3e 472a cd3d aebd b2be 9fbf aabe

bbDiJetResNetBlock.reinforce.0.conv.m f4 [1, 1, 3, 8]
2.3861554 1.9417675 0.23674779 0.71608853 1.6592115 2.8404002 3.741105 3.4624648
1.2304432 2.3722513 1.8105991 1.1584364 5.6178646 2.1627045 2.3476264 3.1122196
0.9719449 0.97279644 0.62926495 2.4298182 -0.06757637 2.236594 1.9964272 2.6076865
00000000: c5b6 1840 d68b f83f 036e 723e 9451 373f
00000010: 0b61 d43f 1ec9 3540 446e 6f40 0699 5d40
00000020: 2a7f 9d3f f7d2 1740 b6c1 e73f a547 943f
00000030: 8cc5 b340 c069 0a40 833f 1640 9b2e 4740
00000040: 62d1 783f 3009 793f 8217 213f 2482 1b40
00000050: 7b65 8abd 5b24 0f40 ed8a ff3f 56e4 2640

bbDiJetResNetBlock.reinforce.0.conv.s f4 [1, 1, 3, 8]
2.5869548 2.8475523 1.0356011 1.5359701 4.1174774 3.2855134 2.286312 3.751759
2.1502032 2.8935196 2.852571 1.9967177 7.5098133 2.8682365 2.7001 3.877524
1.2617843 1.4545716 1.3885868 2.688262 0.41391152 2.1312556 1.7749386 4.1770496
00000000: ab90 2540 4c3e 3640 948e 843f ab9a c43f
00000010: 60c2 8340 da45 5240 f052 1240 d21c 7040
00000020: ee9c 0940 6d2f 3940 8690 3640 7294 ff3f
00000030: 6450 f040 3091 3740 70ce 2c40 5a29 7840
00000040: 2682 a13f 672f ba3f 36bd b13f 7c0c 2c40
00000050: 36ec d33e 7e66 0840 3031 e33f 64aa 8540

bbDiJetResNetBlock.reinforce.0.conv.conv.bias f4 [1, 8, 1]
1.8339337 -1.3605223 -0.5122124 0.701962 -1.5120484 2.2665846 -3.765155 2.5709271
00000000: 57be ea3f 9825 aebf 5a20 03bf c8b3 333f
00000010: cd8a c1bf b90f 1140 4df8 70c0 128a 2440

bbDiJetResNetBlock.reinforce.0.conv.conv.module.weight f4 [4, 8, 3]
-1.4303108 0.30385146 -0.6073438 0.6094928 -0.534098 -1.5810206 -1.4146638 -0.875836
-0.11182907 -0.12764563 -0.7735951 -0.10623893 -1.8798937 -2.7902787 -1.3296384 -2.0041933
-2.2053297 0.25947037 0.2214586 1.7290702 -1.2227155 0.7574079 -0.07304391 0.6499363
-1.5158582 -0.04524784 2.2738311 0.72173154 -0.74554694 0.85431755 -0.08679554 1.8922539
1.6067934 -0.72822934 -0.69682753 0.2946367 -0.6609826 -1.6222045 -1.5059623 0.9027741
-0.9001739 -0.84644014 0.32737663 -1.0330509 -0.90853834 1.139826 1.0406171 -2.4328015
0.9456718 -0.5193147 -1.6139904 0.7457857 1.9292271 -1.2871574 1.0938172 2.0081108
0.4896258 -1.4851558 -0.16968001 -0.74946254 0.71361476 1.2874994 0.2385653 1.3102698
-1.6871797 3.420816 0.11906745 -0.6471307 0.22840983 1.0237814 -0.4683493 1.1690154
-0.8756819 -0.11276641 2.8450732 0.17887062 0.96683204 -1.346044 0.38792267 0.94545084
-0.16991429 -0.7619976 -0.6394461 3.0358431 -0.92031467 -0.7419554 -2.2258606 0.98352057
-0.44348583 -1.1528943 0.14603607 -0.6392756 -1.0935924 -0.23453085 0.5111196 -1.4237164
00000000: 6d14 b7bf 6b92 9b3e e27a 1bbf b807 1c3f
00000010: a6ba 08bf e25e cabf b413 b5bf ca36 60bf
00000020: a406 e5bd 89b5 02be 540a 46bf cc93 d9bd
00000030: 5ba0 f0bf ed93 32c0 9731 aabf b444 00c0
00000040: 1f24 0dc0 4dd9 843e 0bc6 623e 2c52 dd3f
00000050: f181 9cbf 7ce5 413f 0c98 95bd 3a62 263f
00000060: a407 c2bf cd55 39bd 7386 1140 66c3 383f
00000070: 2adc 3ebf 8eb4 5a3f dcc1 b1bd 6035 f23f
00000080: 68ab cd3f 3d6d 3abf 4a63 32bf 9fda 963e
00000090: 2836 29bf 66a4 cfbf 5fc3 c0bf 341c 673f
000000a0: cc71 66bf 4db0 58bf e99d a73e 033b 84bf
000000b0: f895 68bf d2e5 913f f132 853f 05b3 1bc0
000000c0: 8c17 723f cff1 04bf 3d97 cebf d0eb 3e3f
000000d0: eaf0 f63f 93c1 a4bf 3402 8c3f e384 0040
000000e0: 3cb0 fa3e 9619 bebf 99c0 2dbe c7dc 3fbf
000000f0: 75af 363f c8cc a43f 764a 743e ecb6 a73f
00000100: 81f5 d7bf a6ee 5a40 a3d9 f33d 5caa 25bf
00000110: 44e4 693e 450b 833f 7bcb efbe 4ca2 953f
00000120: b02c 60bf 13f2 e6bd ae15 3640 dc29 373e
00000130: 4e82 773f 2b4b acbf cd9d c63e 1109 723f
00000140: 03fe 2dbe 4612 43bf bdb2 23bf 414b 4240
00000150: be99 6bbf caf0 3dbf 8074 0ec0 01c8 7b3f
00000160: 9310 e3be 0a92 93bf 7b8a 153e 91a7 23bf
00000170: d6fa 8bbf db28 70be bcd8 023f 573c b6bf

bbDiJetResNetBlock.reinforce.1.conv.m f4 [1, 1, 3, 8]
3.1887002 4.006398 0.5302134 2.4491606 2.9110475 5.9806194 5.90812 4.888383
1.5529575 3.936218 3.8824754 2.6244066 7.268991 5.896478 3.0628004 3.4264464
4.518392 1.8262378 2.9051805 5.366442 1.5763944 5.2150598 2.2471864 6.6343765
00000000: aa13 4c40 6a34 8040 11bc 073f 0cbf 1c40
00000010: 9a4e 3a40 3c61 bf40 520f bd40 a26d 9c40
00000020: 50c7 c63f ffea 7b40 7a7a 7840 47f6 2740
00000030: 939b e840 f3af bc40 ec04 4440 e64a 5b40
00000040: ab96 9040 29c2 e93f 7aee 3940 e5b9 ab40
00000050: 4bc7 c93f c5e1 a640 e7d1 0f40 d04c d440

bbDiJetResNetBlock.reinforce.1.conv.s f4 [1, 1, 3, 8]
4.7953663 5.0426598 1.8779054 3.320633 4.9504724 6.3052154 3.646074 6.659073
3.3215184 4.8360124 5.63608 3.387949 7.7404118 6.2131023 3.8749776 4.5698934
4.412181 3.3305888 4.9854064 6.6798935 3.7929988 4.8011537 3.6039433 8.421471
00000000: a473 9940 785d a140 345f f03f 4085 5440
00000010: 456a 9e40 53c4 c940 4759 6940 2017 d540
00000020: c293 5440 9dc0 9a40 c45a b440 28d4 5840
00000030: 74b1 f740 bcd1 c640 a2ff 7740 913c 9240
00000040: 9630 8d40 5e28 5540 7388 9f40 b0c1 d540
00000050: 7ec0 7240 0da3 9940 02a7 6640 58be 0641

bbDiJetResNetBlock.reinforce.1.conv.conv.bias f4 [1, 8, 1]
-1.7072783 4.157619 3.3405824 -2.070165 -2.2360303 0.6498358 2.3171086 1.1264895
00000000: 1888 dabf 370b 8540 1acc 5540 957d 04c0
00000010: 1f1b 0fc0 a45b 263f 824b 1440 cf30 903f

bbDiJetResNetBlock.reinforce.1.conv.conv.module.weight f4 [4, 8, 3]
-0.36882257 0.78810704 0.42093572 0.40219113 0.4847815 0.7123669 -0.00075507537 -0.77265316
-0.3145676 0.15396254 0.9240028 1.8042641 -0.1751615 -1.6898824 -0.12237783 -0.46378326
-0.22908875 0.6266383 0.021504316 0.017867219 3.0143065 -0.08565204 -0.34986275 -0.66719043
0.4022338 -0.07076022 -4.0726495 -0.2099486 -0.036420792 -3.376499 0.087103695 -1.3234441
1.1853094 1.1724303 1.6267498 -1.6410823 -1.6247358 0.09687053 -2.2555616 -2.2272792
-0.56572473 -0.26003215 0.97067803 -0.43460464 0.8987933 -2.2504795 -1.9934927 1.6053804
0.7536079 -1.4404068 0.16265272 -0.30365995 0.86207086 0.5871119 1.1496111 1.0652236
-0.34186053 -0.35924375 -0.64671355 1.0385259 -0.21273445 0.6081095 -1.0236486 -0.11347607
-0.16687886 0.07610336 -0.28309998 -1.7831086 -0.9914244 0.20577174 -0.110694796 -1.2715219
2.5087256 -0.64502084 -1.4980456 3.5021877 2.629203 0.5335702 -0.6690996 -1.3068979
-0.44622755 -0.69058454 0.35599974 3.1484532 -2.3262904 -0.92631334 -1.878329 -1.2110527
-1.7409834 1.517595 1.0666237 2.286312 0.77176595 -0.08504847 -0.88553715 -0.29657364
00000000: 50d6 bcbe 62c1 493f e384 d73e ffeb cd3e
00000010: 4835 f83e ad5d 363f 40f0 45ba 99cc 45bf
00000020: 010f a1be 5ba8 1d3e 738b 6c3f 20f2 e63f
00000030: 895d 33be 114e d8bf 3aa1 fabd 0075 edbe
00000040: 3e96 6abe 5e6b 203f d229 b03c 465e 923c
00000050: 66ea 4040 566a afbd 3621 b3be fecc 2abf
00000060: 97f1 cd3e bcea 90bd 2553 82c0 c4fc 56be
00000070: f82d 15bd 8f18 58c0 6c63 b23d 9e66 a9bf
00000080: 38b8 973f 3212 963f 5639 d03f fc0e d2bf
00000090: 58f7 cfbf 0e64 c63d 1f5b 10c0 be8b 0ec0
000000a0: 56d3 10bf ef22 85be 5b7e 783f 8084 debe
000000b0: 5117 663f db07 10c0 c52a ffbf 1b7d cd3f
000000c0: 73ec 403f 405f b8bf 6f8e 263e 5179 9bbe
000000d0: adb0 5c3f f74c 163f 7526 933f 3f59 883f
000000e0: 5808 afbe ccee b7be 058f 25bf 6bee 843f
000000f0: 0fd7 59be 10ad 1b3f eb06 83bf 2466 e8bd
00000100: 4be2 2abe 14dc 9b3d 7bf2 90be e73c e4bf
00000110: fdcd 7dbf d4b5 523e f4b3 e2bd 3bc1 a2bf
00000120: f68e 2040 1620 25bf f5bf bfbf d823 6040
00000130: dd44 2840 0e98 083f 1d4a 2bbf 6e48 a7bf
00000140: f077 e4be 26ca 30bf 9945 b63e 4280 4940
00000150: f1e1 14c0 df22 6dbf 166d f0bf c603 9bbf
00000160: 8bd8 debf 8e40 c23f 2087 883f f052 1240
00000170: 7492 453f e42d aebd 90b2 62bf 80d8 97be

bbDiJetResNetBlock.conv.0.m f4 [1, 1, 1, 8]
1.8082992 2.1570094 1.0236735 0.9372626 3.6385381 2.501552 3.0443656 3.2873416
00000000: 5976 e73f 710c 0a40 bc07 833f 71f0 6f3f
00000010: cfdd 6840 6e19 2040 e3d6 4240 ce63 5240

bbDiJetResNetBlock.conv.0.s f4 [1, 1, 1, 8]
2.4473033 2.8780077 2.285442 1.7950494 6.3714843 3.102076 2.596385 3.8192883
00000000: 9ea0 1c40 4731 3840 af44 1240 2ec4 e53f
00000010: 33e3 cb40 6a88 4640 2c2b 2640 386f 7440

bbDiJetResNetBlock.conv.0.conv.bias f4 [1, 8, 1]
-0.44365084 0.5036749 -0.9361164 1.0964686 1.60191 3.141229 0.050383557 -0.07802902
00000000: 3426 e3be d7f0 003f 53a5 6fbf 1559 8c3f
00000010: 630b cd3f e509 4940 fd5e 4e3d aecd 9fbd

bbDiJetResNetBlock.conv.0.conv.module.weight f4 [4, 8, 1]
2.5766423 1.056611 0.06803313 -0.6283699 -0.036222063 0.26019993 -1.5941468 1.1446683
-0.34857684 1.0944985 -0.9497057 0.774327 -0.7478786 -1.4738863 1.0402743 0.71551067
-0.2975131 0.17389274 2.1353474 0.22752263 1.2867684 -0.5493194 -1.5599589 -0.25573814
-1.6893444 -1.0259823 -0.9814732 1.1513854 0.32428417 0.69014895 -0.8214158 -1.7520152
00000000: b5e7 2440 073f 873f f454 8b3d dadc 20bf
00000010: 965d 14bd ed38 853e 010d ccbf 7e84 923f
00000020: aa78 b2be 8718 8c3f ea1f 73bf 4b3a 463f
00000030: f974 3fbf 4ea8 bcbf b527 853f b52b 373f
00000040: a353 98be f010 323e 88a9 0840 b1fb 683e
00000050: d4b4 a43f 32a0 0cbf bcac c7bf 1cf0 82be
00000060: 703c d8bf 6353 83bf d441 7bbf 9960 933f
00000070: 9308 a63e 9aad 303f 4e48 52bf 0942 e0bf

nonbDiJetResNetBlock.reinforce.0.conv.m f4 [1, 1, 3, 8]
5.3623667 1.5170163 0.48229352 3.6436589 0.19778498 1.6138477 2.7542305 0.21890445
1.2694656 2.6559856 2.5828598 0.40515605 4.739796 1.8095858 1.4728135 2.6317997
0.39822978 1.5812409 0.40051204 0.79933715 1.6974069 0.7673982 1.5603015 1.0580812
00000000: 8298 ab40 972d c23f 2def f63e b531 6940
00000010: 2588 4a3e 9092 ce3f 5045 3040 7d28 603e
00000020: d97d a23f abfb 2940 934d 2540 9d70 cf3e
00000030: 69ac 9740 82a0 e73f 2785 bc3f 686f 2840
00000040: c6e4 cb3e 1a66 ca3f ea0f cd3e 5ca1 4c3f
00000050: a144 d93f 3574 443f f6b7 c73f 346f 873f

nonbDiJetResNetBlock.reinforce.0.conv.s f4 [1, 1, 3, 8]
3.0006695 2.6780903 1.4044499 3.6226559 1.0559546 2.5895221 2.8143578 1.0179853
2.1507604 3.569216 3.5511806 1.265673 6.0544834 3.3086104 2.5017748 3.3252428
1.1497601 1.9075314 1.205088 1.9012741 2.3936765 1.7751936 1.7178764 1.3922988
00000000: f80a 4040 d565 2b40 04c5 b33f 98d9 6740
00000010: 8529 873f bbba 2540 701e 3440 584d 823f
00000020: 0fa6 0940 096e 6440 8b46 6340 9301 a23f
00000030: 54be c140 46c0 5340 141d 2040 c7d0 5440
00000040: 572b 933f fd29 f43f 5340 9a3f f35c f33f
00000050: ff31 1940 8b39 e33f 60e3 db3f d936 b23f

nonbDiJetResNetBlock.reinforce.0.conv.conv.bias f4 [1, 8, 1]
0.29153734 -1.8520676 -0.31163743 0.59874815 -1.0654719 0.9433098 -0.8760854 2.3089736
00000000: 6244 953e 8d10 edbf f18e 9fbe 8f47 193f
00000010: 6261 88bf c07c 713f 2247 60bf 39c6 1340

nonbDiJetResNetBlock.reinforce.0.conv.conv.module.weight f4 [4, 8, 3]
-1.1294835 -1.0914416 -1.4642247 0.20326711 0.014351989 -2.532794 0.20970099 -0.64164877
-1.2472701 -1.520734 -0.54674834 -0.64367485 0.99953264 2.024024 1.0079105 0.62883943
0.1920225 -0.112265535 -3.6078322 -1.0122173 0.577039 0.90441257 -0.1123657 -1.5565478
-0.118642285 0.25287724 4.343006 0.07404107 0.5930327 6.4967146 -0.09974198 0.5416616
0.037568726 -0.2518249 -0.75153154 -0.5484974 0.89753973 0.24397759 0.24430227 -0.25149626
0.87506247 1.2909496 -1.0026118 -0.69006115 0.0071132807 -0.008717495 1.2499096 0.69274396
-2.0970466 -0.5811482 1.8144093 0.5398125 1.6497242 -2.4249256 -1.0571195 0.23775914
-2.7055182 -1.1869446 0.29419872 0.6799396 1.4848158 0.7507221 1.009918 -1.3940619
-1.7545289 1.1489563 -0.41500276 -0.14321882 -0.09522485 0.09008709 0.11100918 1.9467745
-0.03517756 -0.054135166 0.2555289 0.07709533 0.73012847 -2.2834265 0.7778351 -1.813516
-0.917314 1.5378925 0.358183 1.4134668 1.087828 -1.7024294 1.5491762 2.085716
1.0003254 1.162824 -1.070013 -0.62847096 -0.0077951774 0.66107416 -0.10732814 -1.3347901
00000000: ea92 90bf 5cb4 8bbf b76b bbbf 4125 503e
00000010: 9b24 6b3c 4c19 22c0 dbbb 563e 1843 24bf
00000020: 8ca6 9fbf 69a7 c2bf b3f7 0bbf e0c7 24bf
00000030: 5fe1 7f3f 9c89 0140 3603 813f 9ffb 203f
00000040: 8ca1 443e 79eb e5bd b9e6 66c0 5690 81bf
00000050: d4b8 133f 9587 673f fd1f e6bd f53c c7bf
00000060: bafa f2bd 2079 813e e8f9 8a40 d8a2 973d
00000070: fed0 173f 16e5 cf40 8645 ccbd 56aa 0a3f
00000080: aae1 193d 31ef 80be 5f64 40bf 536a 0cbf
00000090: 2ac5 653f 43d5 793e 602a 7a3e 1ec4 80be
000000a0: 1804 603f d63d a53f 9555 80bf d9a7 30bf
000000b0: 8616 e93b d3d3 0ebc 0afd 9f3f ab57 313f
000000c0: 0336 06c0 21c6 14bf 903e e83f 2731 0a3f
000000d0: 2a2a d33f fb31 1bc0 b14f 87bf 2277 733e
000000e0: 3627 2dc0 cded 97bf 37a1 963e 8610 2e3f
000000f0: 720e be3f 532f 403f fe44 813f 9f70 b2bf
00000100: 6794 e0bf 0011 933f 3e7b d4be f4a7 12be
00000110: 3f05 c3bd 957f b83d c858 e33d e82f f93f
00000120: 5816 10bd d6bc 5dbd afd4 823e 28e4 9d3d
00000130: b3e9 3a3f a923 12c0 3320 473f 4b21 e8bf
00000140: 17d5 6abf a9d9 c43f c363 b73e 7bec b43f
00000150: f33d 8b3f 35e9 d9bf 684b c63f 5f7c 0540
00000160: aa0a 803f 6bd7 943f 30f6 88bf 79e3 20bf
00000170: b06e ffbb 283c 293f dbce dbbd 67da aabf

nonbDiJetResNetBlock.reinforce.1.conv.m f4 [1, 1, 3, 8]
7.654078 2.2538714 0.46017814 5.516773 0.2799573 3.2559423 5.330475 0.19073847
2.1299775 4.463607 4.4909725 0.99345374 6.2509856 2.4920816 1.8693517 3.6266444
2.4936154 4.074294 1.4563304 3.375571 3.1322188 4.58254 2.1533372 4.892647
00000000: 35ee f440 6e3f 1040 789c eb3e 6889 b040
00000010: 9056 8f3e 5c61 5040 4093 aa40 f250 433e
00000020: 8d51 0840 ded5 8e40 0cb6 8f40 fc52 7e3f
00000030: 1308 c840 447e 1f40 eb46 ef3f f11a 6840
00000040: 6597 1f40 9e60 8240 0969 ba3f 5b09 5840
00000050: 4676 4840 2ba4 9240 47d0 0940 9090 9c40

nonbDiJetResNetBlock.reinforce.1.conv.s f4 [1, 1, 3, 8]
4.145 3.733983 1.8514878 4.4669304 1.3578193 5.149826 4.224794 1.1810548
3.1642706 5.023329 5.9761367 1.9209833 8.528816 5.2974977 3.2385492 5.946183
4.1651707 9.654009 2.867935 6.0468287 4.8192387 4.607554 2.9036555 4.8852572
00000000: d7a3 8440 94f9 6e40 8dfd ec3f 18f1 8e40
00000010: 06cd ad3f 60cb a440 8331 8740 ce2c 973f
00000020: 6983 4a40 1cbf a040 833c bf40 c8e2 f53f
00000030: 0876 0841 1a85 a940 6444 4f40 2247 be40
00000040: 1449 8540 d276 1a41 3f8c 3740 9f7f c140
00000050: 3437 9a40 1571 9340 7ed5 3940 0754 9c40

nonbDiJetResNetBlock.reinforce.1.conv.conv.bias f4 [1, 8, 1]
-1.539615 0.41012153 -0.52488583 -1.1792151 -0.062418196 -3.0454438 1.048755 -0.1871849
00000000: 1b12 c5bf 73fb d13e eb5e 06bf 85f0 96bf
00000010: 39aa 7fbd 8de8 42c0 9b3d 863f 66ad 3fbe

nonbDiJetResNetBlock.reinforce.1.conv.conv.module.weight f4 [4, 8, 3]
-0.30238673 -0.2883288 -1.0071126 -1.4095607 -1.772361 -0.2891441 0.25285912 -0.65909445
-1.3063105 -0.20992576 -0.39687887 0.1152727 -0.17392796 0.0150717655 -0.458492 0.74394697
0.87687457 -2.1879663 0.227682 0.0075090434 0.6847013 0.104425155 -0.004202734 0.86514926
-1.221613 -0.4910788 -0.3544123 0.34536722 -1.0935438 -0.50223035 -0.43847382 0.31414852
0.53860116 -1.3932692 -0.34430772 0.1593242 -0.105235524 0.02936099 1.6532638 -1.2672333
-1.2192125 -1.048351 0.13032725 1.0780543 -0.6441032 -0.21080981 0.071827196 -1.8013946
0.15195408 -0.2835299 0.5461698 0.22107224 -0.025952429 2.095515 -0.9538861 0.15299158
-0.9071433 -0.20693189 -0.6006659 2.0808094 0.96815616 1.1746235 -0.147249 0.10727693
0.63893336 1.5176111 -0.91778547 -0.8597713 -0.7633671 1.430277 0.7116689 0.2828198
-1.0285861 -0.8255038 1.2759635 -0.24142537 -1.5540954 -0.26433972 -0.047087997 -0.9411889
0.7171587 -1.7973508 -0.56243914 -0.6626567 -0.10096438 0.43031114 0.71865153 -0.9260495
0.022451531 0.5263756 -0.5175393 0.70289785 1.2100002 0.030371267 -1.1752018 -0.111173786
00000000: 6fd2 9abe d59f 93be 11e9 80bf 7c6c b4bf
00000010: badc e2bf b20a 94be c076 813e 6aba 28bf
00000020: 2f35 a7bf c7f6 56be b533 cbbe 1814 ec3d
00000030: 2c1a 32be 91ef 763c 77bf eabe 4f73 3e3f
00000040: da7a 603f a407 0cc0 7825 693e 6c0e f63b
00000050: 9648 2f3f dbdc d53d 17b7 89bb 6c7a 5d3f
00000060: d15d 9cbf ae6e fbbe 8775 b5be f9d3 b03e
00000070: 3ef9 8bbf 2b92 00bf a47f e0be 13d8 a03e
00000080: c4e1 093f a556 b2bf 1a49 b0be e225 233e
00000090: b985 d7bd 7586 f03c 269e d33f b334 a2bf
000000a0: 280f 9cbf 5e30 86bf 8274 053e affd 893f
000000b0: f3e3 24bf 87de 57be 231a 933d 1994 e6bf
000000c0: da99 1b3e d52a 91be c9d1 0b3f c360 623e
000000d0: 309a d4bc eb1c 0640 e131 74bf d3a9 1c3e
000000e0: 8b3a 68bf f4e5 53be 3ec5 19bf fb2b 0540
000000f0: 15d9 773f 105a 963f 71c8 16be 02b4 db3d
00000100: 2391 233f 1541 c23f fdf3 6abf f919 5cbf
00000110: 076c 43bf 5113 b73f ef2f 363f c2cd 903e
00000120: b6a8 83bf 3854 53bf c652 a33f 3638 77be
00000130: 99ec c6bf 8957 87be 58df 40bd c1f1 70bf
00000140: b697 373f 970f e6bf 03fc 0fbf dfa3 29bf
00000150: 6ac6 cebd be51 dc3e 8cf9 373f 9411 6dbf
00000160: 46ec b73c 8dc0 063f 757d 04bf 1df1 333f
00000170: 49e1 9a3f 2acd f83c 036d 96bf 15af e3bd

nonbDiJetResNetBlock.conv.0.m f4 [1, 1, 1, 8]
3.3159163 2.086501 1.5325764 2.0244074 2.468791 1.7117169 2.113522 1.4253522
00000000: f937 5440 3b89 0540 772b c43f e48f 0140
00000010: ac00 1e40 8a19 db3f f243 0740 f171 b63f

nonbDiJetResNetBlock.conv.0.s f4 [1, 1, 1, 8]
3.31709 3.205409 2.8973818 3.1597474 4.9025335 2.9721766 2.7392466 2.7392237
00000000: 344b 5440 6c25 4d40 b46e 3940 4d39 4a40
00000010: 8ee1 9c40 2438 3e40 d14f 2f40 714f 2f40

nonbDiJetResNetBlock.conv.0.conv.bias f4 [1, 8, 1]
0.9991442 -0.24148843 -1.6837858 0.35092962 -0.23954593 -0.71728605 -0.117573574 -2.8148048
00000000: eac7 7f3f be48 77be 4b86 d7bf 0cad b33e
00000010: 874b 75be 0fa0 37bf 6aca f0bd c325 34c0

nonbDiJetResNetBlock.conv.0.conv.module.weight f4 [4, 8, 1]
0.5047567 -0.20246062 -0.3997147 0.26409742 -0.8236473 -0.8397029 -1.7151108 -1.4215319
-0.19886275 0.15728691 0.43454963 -1.2226014 -0.7102014 -3.1045895 -1.5327603 0.6123187
-1.269935 1.4783292 0.51801246 -0.18128362 0.4716014 -0.48941422 -0.6548688 1.7154869
-0.14762563 0.4137735 -1.1419276 0.47982302 -0.6544217 0.4817635 -0.46669725 -2.1035023
00000000: bc37 013f d651 4fbe 68a7 ccbe c737 873e
00000010: 8dda 52bf c5f6 56bf c088 dbbf c2f4 b5bf
00000020: ada2 4bbe d20f 213e 4a7d de3e 347e 9cbf
00000030: c2cf 35bf 98b1 46c0 7d31 c4bf ebc0 1c3f
00000040: 3b8d a2bf e439 bd3f 779c 043f 6aa2 39be
00000050: bd75 f13e 8094 fabe 7ba5 27bf 1395 db3f
00000060: 2c2b 17be 1fda d33e af2a 92bf 5dab f53e
00000070: 2e88 27bf b5a9 f63e f1f2 eebe c89f 06c0

lepWResNetBlock.reinforce.0.conv.m f4 [1, 1, 1, 8]
0.0 0.0 0.0 0.0 0.0 0.0 0.0 0.0
00000000: 0000 0000 0000 0000 0000 0000 0000 0000
00000010: 0000 0000 0000 0000 0000 0000 0000 0000

lepWResNetBlock.reinforce.0.conv.s f4 [1, 1, 1, 8]
1.0 1.0 1.0 1.0 1.0 1.0 1.0 1.0
00000000: 0000 803f 0000 803f 0000 803f 0000 803f
00000010: 0000 803f 0000 803f 0000 803f 0000 803f

lepWResNetBlock.reinforce.0.conv.conv.bias f4 [1, 8, 1]
0.0 0.0 0.0 0.0 0.0 0.0 0.0 0.0
00000000: 0000 0000 0000 0000 0000 0000 0000 0000
00000010: 0000 0000 0000 0000 0000 0000 0000 0000

lepWResNetBlock.reinforce.0.conv.conv.module.weight f4 [4, 8, 1]
0.28175426 -0.28098765 -0.23276351 0.26030904 -0.2357347 0.056330275 -0.17527348 0.15871474
-0.32492784 0.051387165 0.14399382 -0.32916048 0.21372578 0.17663385 0.066050224 0.32327074
-0.040612027 0.34431523 -0.045842916 0.33460554 -0.3518498 -0.13451798 -0.25821447 0.23574063
0.1653012 0.21028988 -0.26573074 -0.30353817 -0.058836956 -0.32504404 -0.26797283 0.24012779
00000000: 1842 903e 9ddd 8fbe 8f59 6ebe 3a47 853e
00000010: 7064 71be 93ba 663d e47a 33be 1e86 223e
00000020: f15c a6be 597b 523d 1e73 133e b987 a8be
00000030: eeda 5a3e 81df 343e 5745 873d be83 a53e
00000040: cc58 26bd 164a b03e c8c5 3bbd 6b51 ab3e
00000050: a825 b4be 15bf 09be b034 84be fe65 713e
00000060: b844 293e 3b56 573e dc0d 88be 5b69 9bbe
00000070: 05ff 70bd 2c6c a6be bc33 89be 0fe4 753e

lepWResNetBlock.reinforce.1.conv.m f4 [1, 1, 1, 8]
0.0 0.0 0.0 0.0 0.0 0.0 0.0 0.0
00000000: 0000 0000 0000 0000 0000 0000 0000 0000
00000010: 0000 0000 0000 0000 0000 0000 0000 0000

lepWResNetBlock.reinforce.1.conv.s f4 [1, 1, 1, 8]
1.0 1.0 1.0 1.0 1.0 1.0 1.0 1.0
00000000: 0000 803f 0000 803f 0000 803f 0000 803f
00000010: 0000 803f 0000 803f 0000 803f 0000 803f

lepWResNetBlock.reinforce.1.conv.conv.bias f4 [1, 8, 1]
0.0 0.0 0.0 0.0 0.0 0.0 0.0 0.0
00000000: 0000 0000 0000 0000 0000 0000 0000 0000
00000010: 0000 0000 0000 0000 0000 0000 0000 0000

lepWResNetBlock.reinforce.1.conv.conv.module.weight f4 [4, 8, 1]
-0.18190496 0.10599144 -0.06403219 0.115259364 0.35169274 0.100697584 -0.19800581 -0.046374682
0.054215387 0.040475134 0.09458183 0.02913936 0.120627314 0.09947191 0.30281314 -0.14903542
0.2417405 -0.2798776 0.20983255 0.1629658 0.19713716 -0.057824884 -0.04972915 0.31805077
-0.122485064 0.0038745597 0.16913694 -0.09799715 0.00019505562 0.3319475 -0.2627134 -0.22992872
00000000: 4b45 3abe 0a12 d93d 4f23 83bd 1a0d ec3d
00000010: 1211 b43e 893a ce3d 09c2 4abe 61f3 3dbd
00000020: f410 5e3d 41c9 253d 1eb4 c13d abb5 ee3c
00000030: 740b f73d eeb7 cb3d 530a 9b3e be9c 18be
00000040: d28a 773e 1e4c 8fbe 58de 563e 82e0 263e
00000050: 53de 493e c9d9 6cbd cbb0 4bbd 8dd7 a23e
00000060: 73d9 fabd 53ec 7d3b 3c32 2d3e bbb2 c8bd
00000070: d887 4c39 06f5 a93e 5f82 86be 6f72 6bbe

lepWResNetBlock.conv.0.m f4 [1, 1, 1, 8]
0.0 0.0 0.0 0.0 0.0 0.0 0.0 0.0
00000000: 0000 0000 0000 0000 0000 0000 0000 0000
00000010: 0000 0000 0000 0000 0000 0000 0000 0000

lepWResNetBlock.conv.0.s f4 [1, 1, 1, 8]
1.0 1.0 1.0 1.0 1.0 1.0 1.0 1.0
00000000: 0000 803f 0000 803f 0000 803f 0000 803f
00000010: 0000 803f 0000 803f 0000 803f 0000 803f

lepWResNetBlock.conv.0.conv.bias f4 [1, 8, 1]
0.0 0.0 0.0 0.0 0.0 0.0 0.0 0.0
00000000: 0000 0000 0000 0000 0000 0000 0000 0000
00000010: 0000 0000 0000 0000 0000 0000 0000 0000

lepWResNetBlock.conv.0.conv.module.weight f4 [4, 8, 1]
-0.2522493 0.0032906572 -0.17827152 -0.11497129 -0.25466484 -0.27452022 -0.2825812 0.11885794
-0.27346766 0.2503378 0.31811538 0.1329806 -0.30280134 -0.2501755 -0.1613681 0.15627533
-0.35051715 0.18983236 0.26571766 -0.026406433 0.21748035 0.22559649 0.09594342 0.28754118
0.18906258 0.1492844 -0.12228124 0.23711105 0.014975871 0.24260193 0.26885566 0.106683366
00000000: d226 81be 11a8 573b cf8c 36be 1176 ebbd
00000010: 6e63 82be ea8d 8cbe 7cae 90be cb6b f33d
00000020: f403 8cbe 472c 803e 05e0 a23e 112c 083e
00000030: c708 9bbe 0117 80be ae3d 25be a406 203e
00000040: fc76 b3be 6a63 423e 250c 883e 4e52 d8bc
00000050: 2bb3 5e3e c402 673e fc7d c43d 9938 933e
00000060: 9f99 413e 02de 183e 966e fabd 3dcd 723e
00000070: 5b5d 753c a46c 783e 73a7 893e cf7c da3d

bWhadResNetBlock.reinforce.0.conv.m f4 [1, 1, 1, 8]
0.69374937 2.7006228 1.7134475 1.7392567 2.5969708 0.74683887 3.7091887 2.402455
00000000: 8f99 313f 01d7 2c40 3f52 db3f f79f de3f
00000010: c534 2640 d530 3f3f 5963 6d40 d3c1 1940

bWhadResNetBlock.reinforce.0.conv.s f4 [1, 1, 1, 8]
1.472502 3.1356046 3.5660417 3.2274637 4.0615673 2.227271 3.971851 3.4923186
00000000: f27a bc3f bfad 4840 073a 6440 c48e 4e40
00000010: 5cf8 8140 9c8b 0e40 cf32 7e40 2682 5f40

bWhadResNetBlock.reinforce.0.conv.conv.bias f4 [1, 8, 1]
0.0 0.0 0.0 0.0 0.0 0.0 0.0 0.0
00000000: 0000 0000 0000 0000 0000 0000 0000 0000
00000010: 0000 0000 0000 0000 0000 0000 0000 0000

bWhadResNetBlock.reinforce.0.conv.conv.module.weight f4 [4, 8, 1]
-0.12965024 0.20094807 -0.052313216 -0.17038302 -0.04996589 0.09093086 -0.15293881 0.23911062
-0.24428351 -0.27736706 0.3075906 0.042435892 -0.06730422 -0.20034815 -0.23750229 0.25891596
0.33886412 0.2584685 0.1463565 -0.009116194 -0.092180006 0.22477832 0.065287784 -0.17483394
-0.1979262 0.26663718 -0.11802386 -0.31968918 0.21892767 -0.26460192 -0.1759759 0.10837999
00000000: 08c3 04be 55c5 4d3e 6246 56bd e378 2ebe
00000010: 08a9 4cbd f539 ba3d fe9b 1cbe 6ad9 743e
00000020: 7525 7abe 0e03 8ebe 847c 9d3e 42d1 2d3d
00000030: cbd6 89bd 1128 4dbe cd33 73be a290 843e
00000040: 997f ad3e fc55 843e 7ade 153e 175c 15bc
00000050: dfc8 bcbd 4a2c 663e 9ab5 853d ab07 33be
00000060: 2aad 4abe ab84 883e 7eb6 f1bd 4dae a3be
00000070: 932e 603e e779 87be 0733 34be 54f6 dd3d

bWhadResNetBlock.reinforce.1.conv.m f4 [1, 1, 1, 8]
2.4521756 4.1413546 2.6505008 2.2938337 3.6489532 1.5154057 3.3335369 2.8795867
00000000: 72f0 1c40 fa85 8440 cea1 2940 2cce 1240
00000010: 7388 6940 d0f8 c13f ab58 5540 264b 3840

bWhadResNetBlock.reinforce.1.conv.s f4 [1, 1, 1, 8]
2.8099096 4.0827947 3.982915 3.6869464 6.1865535 3.4563012 5.30961 3.9049058
00000000: 8fd5 3340 41a6 8240 14e8 7e40 eef6 6b40
00000010: 3ff8 c540 0a34 5d40 53e8 a940 fae9 7940

bWhadResNetBlock.reinforce.1.conv.conv.bias f4 [1, 8, 1]
0.8893631 1.7767103 -0.51742774 2.0247161 -0.96164757 -1.2849339 -1.0389336 1.6890303
00000000: 4dad 633f 3e6b e33f 2576 04bf f394 0140
00000010: 892e 76bf b778 a4bf c7fb 84bf 2532 d83f

bWhadResNetBlock.reinforce.1.conv.conv.module.weight f4 [4, 8, 1]
0.13467164 -0.88317204 -1.2979677 -1.2311873 2.280596 -0.20277527 -0.66063696 -0.6576929
1.545595 0.38626358 -0.9043942 0.08539916 -0.34190455 -0.45359746 1.565209 0.58172506
2.9810703 -0.4432691 -0.9451483 -2.7291694 -2.0564606 0.10377714 1.6999816 2.3987973
1.8463701 -0.14745846 -0.28423184 0.09049387 -2.3355749 -0.79939723 0.5720628 -0.26586387
00000000: 5de7 093e 9017 62bf ce23 a6bf 8c97 9dbf
00000010: 49f5 1140 52a4 4fbe 811f 29bf 905e 28bf
00000020: 0fd6 c53f 57c4 c53e 6186 67bf c1e5 ae3d
00000030: 1d0e afbe ed3d e8be c558 c83f efeb 143f
00000040: dbc9 3e40 2bf4 e2be 3df5 71bf b6aa 2ec0
00000050: 0d9d 03c0 1c89 d43d ff98 d93f e585 1940
00000060: db55 ec3f 5aff 16be d686 91be da54 b93d
00000070: 0f7a 15c0 4ca5 4cbf b572 123f 4f1f 88be

bWhadResNetBlock.conv.0.m f4 [1, 1, 1, 8]
0.69374937 2.7006228 1.7134475 1.7392567 2.5969708 0.74683887 3.7091887 2.402455
00000000: 8f99 313f 01d7 2c40 3f52 db3f f79f de3f
00000010: c534 2640 d530 3f3f 5963 6d40 d3c1 1940

bWhadResNetBlock.conv.0.s f4 [1, 1, 1, 8]
1.472502 3.1356046 3.5660417 3.2274637 4.0615673 2.227271 3.971851 3.4923186
00000000: f27a bc3f bfad 4840 073a 6440 c48e 4e40
00000010: 5cf8 8140 9c8b 0e40 cf32 7e40 2682 5f40

bWhadResNetBlock.conv.0.conv.bias f4 [1, 8, 1]
2.036947 1.3340818 0.3284958 0.7096753 0.30934083 1.0980468 -1.949214 0.38273492
00000000: 575d 0240 31c3 aa3f 9a30 a83e 48ad 353f
00000010: ec61 9e3e cc8c 8c3f d87f f9bf d5f5 c33e

bWhadResNetBlock.conv.0.conv.module.weight f4 [4, 8, 1]
-0.7024531 -0.16134514 0.01563547 1.0604037 -3.030784 -1.1829635 0.6609276 -0.12251419
-0.062574685 -1.2177753 0.37436262 0.40606445 -0.056550853 -0.8411333 -2.213208 -2.1558645
-2.296872 -0.86476606 -0.67513794 -1.8035855 -1.031713 0.59794927 -0.8745939 -3.1258707
-1.0325906 -2.993752 -0.86646295 -0.14693491 1.2394025 -0.06517537 -0.23735914 0.024010211
00000000: f7d3 33bf a937 25be f515 803c 4fbb 873f
00000010: 5df8 41c0 596b 97bf 8d32 293f b8e8 fabd
00000020: 2827 80bd 10e0 9bbf 75ac bf3e aee7 cf3e
00000030: dea1 67bd 8354 57bf 33a5 0dc0 aff9 09c0
00000040: f3ff 12c0 4f61 5dbf d7d5 2cbf e4db e6bf
00000050: 2c0f 84bf 3413 193f 63e5 5fbf 440e 48c0
00000060: ee2b 84bf a299 3fc0 84d0 5dbf 1b76 16be
00000070: bea4 9e3f aa7a 85bd 460e 73be 10b1 c43c

bWlepResNetBlock.reinforce.0.conv.m f4 [1, 1, 1, 8]
0.6651889 0.5225471 1.5318648 2.1201217 1.3295771 0.53515047 0.71521664 1.8957509
00000000: d249 2a3f a6c5 053f 2514 c43f 13b0 0740
00000010: 952f aa3f 9fff 083f 7018 373f f7a7 f23f

bWlepResNetBlock.reinforce.0.conv.s f4 [1, 1, 1, 8]
1.5278676 1.6500099 2.4895566 2.0754874 1.7213881 0.9038256 1.2728546 3.0604465
00000000: 2a91 c33f 8633 d33f e554 1f40 c9d4 0440
00000010: 7256 dc3f 1d61 673f e6ec a23f 5bde 4340

bWlepResNetBlock.reinforce.0.conv.conv.bias f4 [1, 8, 1]
0.0 0.0 0.0 0.0 0.0 0.0 0.0 0.0
00000000: 0000 0000 0000 0000 0000 0000 0000 0000
00000010: 0000 0000 0000 0000 0000 0000 0000 0000

bWlepResNetBlock.reinforce.0.conv.conv.module.weight f4 [4, 8, 1]
-0.042021755 0.23881774 -0.31312495 0.20452815 0.3108172 -0.14361277 0.31011465 0.1601498
-0.074399635 -0.35089022 0.09679643 -0.15468635 0.20817782 0.08476625 0.2530946 0.12426872
-0.24522115 -0.32532775 -0.012765395 -0.3030603 -0.29663634 -0.27170822 -0.26210403 -0.21645837
-0.022004616 0.11649013 0.32946786 0.29203075 0.32681495 0.09498327 0.06513593 -0.07858187
00000000: 011f 2cbd a38c 743e ea51 a0be d46f 513e
00000010: 6f23 9f3e 3a0f 13be 59c7 9e3e 4ffe 233e
00000020: d65e 98bd e2a7 b3be 353d c63d 1966 1ebe
00000030: 912c 553e ed99 ad3d 9e95 813e 9980 fe3d
00000040: 411b 7bbe 5c91 a6be f325 51bc b82a 9bbe
00000050: b8e0 97be 571d 8bbe 8032 86be 43a7 5dbe
00000060: 0643 b4bc 6192 ee3d 03b0 a83e 0e85 953e
00000070: 4a54 a73e 9786 c23d fd65 853d 88ef a0bd

bWlepResNetBlock.reinforce.1.conv.m f4 [1, 1, 1, 8]
3.137062 1.7246394 3.9733603 1.5939968 3.5857167 4.1588297 2.5077434 2.3534894
00000000: a0c5 4840 fcc0 dc3f 894b 7e40 1608 cc3f
00000010: 627c 6540 2215 8540 de7e 2040 929f 1640

bWlepResNetBlock.reinforce.1.conv.s f4 [1, 1, 1, 8]
5.4774857 3.2775397 4.1720624 2.0900164 4.296562 3.536142 4.1653557 4.390758
00000000: 9047 af40 36c3 5140 8981 8540 d4c2 0540
00000010: 707d 8940 2750 6240 984a 8540 1781 8c40

bWlepResNetBlock.reinforce.1.conv.conv.bias f4 [1, 8, 1]
0.5050676 -2.3707955 5.921905 1.5385942 0.4548882 3.3979385 -0.60957956 -1.3452573
00000000: 1c4c 013f 1dbb 17c0 3f80 bd40 a8f0 c43f
00000010: 1be7 e83e d377 5940 680d 1cbf 6431 acbf

bWlepResNetBlock.reinforce.1.conv.conv.module.weight f4 [4, 8, 1]
-0.10392916 -0.056311198 -0.55888623 -0.7012948 1.1371799 0.124977425 0.6926964 -0.071665734
0.766057 0.017410798 1.4274124 0.10264973 -0.4133553 -0.6957286 -0.006699948 0.08091281
0.8508902 0.55854523 0.19351801 -0.1332914 0.49823365 -0.44860408 -0.37297055 1.9697428
-1.0129219 0.5781895 -0.4454591 0.584401 0.6860439 -0.7781507 1.213866 -0.5514085
00000000: d0d8 d4bd 92a6 66bd 2b13 0fbf 0e88 33bf
00000010: 1c8f 913f 2af4 ff3d 8d54 313f 7cc5 92bd
00000020: 501c 443f 17a1 8e3c 73b5 b63f 063a d23d
00000030: 4ea3 d3be 451b 32bf 3d8b dbbb 9eb5 a53d
00000040: f1d3 593f d2fc 0e3f 9629 463e 8a7d 08be
00000050: 7b18 ff3e 6faf e5be fff5 bebe 8820 fc3f
00000060: 6da7 81bf 3a04 143f 3713 e4be 4e9b 153f
00000070: 93a0 2f3f e234 47bf f65f 9b3f 1c29 0dbf

bWlepResNetBlock.conv.0.m f4 [1, 1, 1, 8]
0.6651889 0.5225471 1.5318648 2.1201217 1.3295771 0.53515047 0.71521664 1.8957509
00000000: d249 2a3f a6c5 053f 2514 c43f 13b0 0740
00000010: 952f aa3f 9fff 083f 7018 373f f7a7 f23f

bWlepResNetBlock.conv.0.s f4 [1, 1, 1, 8]
1.5278676 1.6500099 2.4895566 2.0754874 1.7213881 0.9038256 1.2728546 3.0604465
00000000: 2a91 c33f 8633 d33f e554 1f40 c9d4 0440
00000010: 7256 dc3f 1d61 673f e6ec a23f 5bde 4340

bWlepResNetBlock.conv.0.conv.bias f4 [1, 8, 1]
1.1477658 0.16079818 0.9601081 -2.3415136 0.4295895 3.7265801 -0.39142376 -0.9549686
00000000: fde9 923f 47a8 243e a5c9 753f 5cdb 15c0
00000010: 28f3 db3e 4a80 6e40 b268 c8be d278 74bf

bWlepResNetBlock.conv.0.conv.module.weight f4 [4, 8, 1]
0.9906755 0.87568885 0.17088422 -0.7327469 -1.0187899 -1.5114896 -1.3336203 1.4425831
1.0367225 1.5145996 -0.5359735 -0.37084654 2.8712754 1.9878587 0.6485292 0.08266732
0.14706321 -0.25298208 0.4697179 0.08627062 -2.49881 -0.6703944 -1.6268946 -1.3313035
-0.6659901 0.29212904 -0.33974355 0.5872272 1.5720937 -1.3600992 0.056284733 -0.9912743
00000000: e99c 7d3f 252d 603f 46fc 2e3e 4d95 3bbf
00000010: b567 82bf 7e78 c1bf 12b4 aabf 90a6 b83f
00000020: 53b3 843f 66de c13f 8f35 09bf 99df bdbe
00000030: fac2 3740 2772 fe3f 0206 263f 7c4d a93d
00000040: bd97 163e de86 81be dd7e f03e a7ae b03d
00000050: 81ec 1fc0 f89e 2bbf 153e d0bf 2768 aabf
00000060: 547e 2abf f091 953e def2 adbe 8654 163f
00000070: 5e3a c93f bb17 aebf d28a 663d 27c4 7dbf

attention_tt.q_GBN.gamma f4 [8]
-0.676683 -3.2678347 0.7495835 -0.12043218 3.0727463 4.113026 6.433597 3.4797764
00000000: 193b 2dbf 3424 51c0 b4e4 3f3f 26a5 f6bd
00000010: e0a7 4440 e99d 8340 07e0 cd40 a8b4 5e40

attention_tt.q_GBN.bias f4 [8]
-4.4385424 -3.0324762 -0.7555742 6.306461 2.7524343 -0.3628314 -1.6430696 -1.4960569
00000000: 8a08 8ec0 1714 42c0 506d 41bf 87ce c940
00000010: e227 3040 0ac5 b9be 1b50 d2bf cb7e bfbf

attention_tt.q_GBN.m f4 [1, 1, 1, 8]
2.0879774 3.7970228 3.2246819 4.6915693 0.25691774 0.53725904 2.494971 3.8072338
00000000: 6ca1 0540 6c02 7340 3061 4e40 5621 9640
00000010: b98a 833e cf89 093f 9bad 1f40 b8a9 7340

attention_tt.q_GBN.s f4 [1, 1, 1, 8]
2.8694777 3.6455112 5.2708282 3.880849 0.950796 1.5833378 4.094212 4.226567
00000000: 86a5 3740 0e50 6940 a0aa a840 d45f 7840
00000010: 5e67 733f d0aa ca3f c903 8340 0940 8740

attention_tt.v_GBN.gamma f4 [8]
0.64723325 0.3771244 0.53074366 1.2122573 0.07107712 1.5183755 0.23205909 0.25181338
00000000: 14b1 253f 7316 c13e d1de 073f 3f2b 9b3f
00000010: e290 913d 215a c23f e6a0 6d3e afed 803e

attention_tt.v_GBN.bias f4 [8]
-0.9348333 -0.16381812 -0.047319513 0.8691274 -1.2977087 2.0692077 5.3388934 2.259252
00000000: 3c51 6fbf f0bf 27be 1bd2 41bd 227f 5e3f
00000010: 521b a6bf e66d 0440 37d8 aa40 9697 1040

attention_tt.v_GBN.m f4 [1, 1, 1, 8]
3.075766 0.18209654 11.870725 3.8753 4.056382 6.4049444 0.9528005 1.3426377
00000000: 5ad9 4440 8477 3a3e 7dee 3d41 ea04 7840
00000010: e2cd 8140 4ef5 cc40 bcea 733f 8ddb ab3f

attention_tt.v_GBN.s f4 [1, 1, 1, 8]
5.007582 0.8711752 4.0954437 3.9975026 4.591288 3.5927367 2.1197462 2.9737167
00000000: 1d3e a040 5705 5f3f e00d 8340 15d7 7f40
00000010: d5eb 9240 66ef 6540 eca9 0740 6051 3e40
